<?xml version="1.0" ?>
<net batch="1" name="frozen_inference_graph" version="6">
	<layers>
		<layer id="0" name="image_tensor" precision="FP16" type="Input">
			<output>
				<port id="0">
					<dim>1</dim>
					<dim>3</dim>
					<dim>600</dim>
					<dim>1024</dim>
				</port>
			</output>
		</layer>
		<layer id="1" name="Preprocessor/mul/fused_power" precision="FP16" type="Power">
			<data power="1" scale="0.007843137718737125" shift="-1.0"/>
			<input>
				<port id="0">
					<dim>1</dim>
					<dim>3</dim>
					<dim>600</dim>
					<dim>1024</dim>
				</port>
			</input>
			<output>
				<port id="1">
					<dim>1</dim>
					<dim>3</dim>
					<dim>600</dim>
					<dim>1024</dim>
				</port>
			</output>
		</layer>
		<layer id="2" name="FirstStageFeatureExtractor/InceptionV2/InceptionV2/Conv2d_1a_7x7/separable_conv2d/depthwise" precision="FP16" type="Convolution">
			<data auto_pad="same_upper" dilations="1,1" group="3" kernel="7,7" output="24" pads_begin="2,2" pads_end="3,3" strides="2,2"/>
			<input>
				<port id="0">
					<dim>1</dim>
					<dim>3</dim>
					<dim>600</dim>
					<dim>1024</dim>
				</port>
			</input>
			<output>
				<port id="2">
					<dim>1</dim>
					<dim>24</dim>
					<dim>300</dim>
					<dim>512</dim>
				</port>
			</output>
			<blobs>
				<weights offset="0" size="2352"/>
			</blobs>
		</layer>
		<layer id="3" name="FirstStageFeatureExtractor/InceptionV2/InceptionV2/Conv2d_1a_7x7/separable_conv2d" precision="FP16" type="Convolution">
			<data auto_pad="valid" dilations="1,1" group="1" kernel="1,1" output="64" pads_begin="0,0" pads_end="0,0" strides="1,1"/>
			<input>
				<port id="0">
					<dim>1</dim>
					<dim>24</dim>
					<dim>300</dim>
					<dim>512</dim>
				</port>
			</input>
			<output>
				<port id="2">
					<dim>1</dim>
					<dim>64</dim>
					<dim>300</dim>
					<dim>512</dim>
				</port>
			</output>
			<blobs>
				<weights offset="2352" size="3072"/>
			</blobs>
		</layer>
		<layer id="4" name="ScaleShift/FirstStageFeatureExtractor/InceptionV2/InceptionV2/Conv2d_1a_7x7/BatchNorm/FusedBatchNorm/Add" precision="FP16" type="ScaleShift">
			<input>
				<port id="0">
					<dim>1</dim>
					<dim>64</dim>
					<dim>300</dim>
					<dim>512</dim>
				</port>
			</input>
			<output>
				<port id="3">
					<dim>1</dim>
					<dim>64</dim>
					<dim>300</dim>
					<dim>512</dim>
				</port>
			</output>
			<blobs>
				<weights offset="5424" size="128"/>
				<biases offset="5552" size="128"/>
			</blobs>
		</layer>
		<layer id="5" name="FirstStageFeatureExtractor/InceptionV2/InceptionV2/Conv2d_1a_7x7/Relu" precision="FP16" type="ReLU">
			<input>
				<port id="0">
					<dim>1</dim>
					<dim>64</dim>
					<dim>300</dim>
					<dim>512</dim>
				</port>
			</input>
			<output>
				<port id="1">
					<dim>1</dim>
					<dim>64</dim>
					<dim>300</dim>
					<dim>512</dim>
				</port>
			</output>
		</layer>
		<layer id="6" name="FirstStageFeatureExtractor/InceptionV2/InceptionV2/MaxPool_2a_3x3/MaxPool" precision="FP16" type="Pooling">
			<data auto_pad="same_upper" exclude-pad="true" kernel="3,3" pads_begin="0,0" pads_end="1,1" pool-method="max" strides="2,2"/>
			<input>
				<port id="0">
					<dim>1</dim>
					<dim>64</dim>
					<dim>300</dim>
					<dim>512</dim>
				</port>
			</input>
			<output>
				<port id="1">
					<dim>1</dim>
					<dim>64</dim>
					<dim>150</dim>
					<dim>256</dim>
				</port>
			</output>
		</layer>
		<layer id="7" name="FirstStageFeatureExtractor/InceptionV2/InceptionV2/Conv2d_2b_1x1/Conv2D" precision="FP16" type="Convolution">
			<data auto_pad="same_upper" dilations="1,1" group="1" kernel="1,1" output="64" pads_begin="0,0" pads_end="0,0" strides="1,1"/>
			<input>
				<port id="0">
					<dim>1</dim>
					<dim>64</dim>
					<dim>150</dim>
					<dim>256</dim>
				</port>
			</input>
			<output>
				<port id="2">
					<dim>1</dim>
					<dim>64</dim>
					<dim>150</dim>
					<dim>256</dim>
				</port>
			</output>
			<blobs>
				<weights offset="5680" size="8192"/>
			</blobs>
		</layer>
		<layer id="8" name="ScaleShift/FirstStageFeatureExtractor/InceptionV2/InceptionV2/Conv2d_2b_1x1/BatchNorm/FusedBatchNorm/Add" precision="FP16" type="ScaleShift">
			<input>
				<port id="0">
					<dim>1</dim>
					<dim>64</dim>
					<dim>150</dim>
					<dim>256</dim>
				</port>
			</input>
			<output>
				<port id="3">
					<dim>1</dim>
					<dim>64</dim>
					<dim>150</dim>
					<dim>256</dim>
				</port>
			</output>
			<blobs>
				<weights offset="5424" size="128"/>
				<biases offset="13872" size="128"/>
			</blobs>
		</layer>
		<layer id="9" name="FirstStageFeatureExtractor/InceptionV2/InceptionV2/Conv2d_2b_1x1/Relu" precision="FP16" type="ReLU">
			<input>
				<port id="0">
					<dim>1</dim>
					<dim>64</dim>
					<dim>150</dim>
					<dim>256</dim>
				</port>
			</input>
			<output>
				<port id="1">
					<dim>1</dim>
					<dim>64</dim>
					<dim>150</dim>
					<dim>256</dim>
				</port>
			</output>
		</layer>
		<layer id="10" name="FirstStageFeatureExtractor/InceptionV2/InceptionV2/Conv2d_2c_3x3/Conv2D" precision="FP16" type="Convolution">
			<data auto_pad="same_upper" dilations="1,1" group="1" kernel="3,3" output="192" pads_begin="1,1" pads_end="1,1" strides="1,1"/>
			<input>
				<port id="0">
					<dim>1</dim>
					<dim>64</dim>
					<dim>150</dim>
					<dim>256</dim>
				</port>
			</input>
			<output>
				<port id="2">
					<dim>1</dim>
					<dim>192</dim>
					<dim>150</dim>
					<dim>256</dim>
				</port>
			</output>
			<blobs>
				<weights offset="14000" size="221184"/>
			</blobs>
		</layer>
		<layer id="11" name="ScaleShift/FirstStageFeatureExtractor/InceptionV2/InceptionV2/Conv2d_2c_3x3/BatchNorm/FusedBatchNorm/Add" precision="FP16" type="ScaleShift">
			<input>
				<port id="0">
					<dim>1</dim>
					<dim>192</dim>
					<dim>150</dim>
					<dim>256</dim>
				</port>
			</input>
			<output>
				<port id="3">
					<dim>1</dim>
					<dim>192</dim>
					<dim>150</dim>
					<dim>256</dim>
				</port>
			</output>
			<blobs>
				<weights offset="235184" size="384"/>
				<biases offset="235568" size="384"/>
			</blobs>
		</layer>
		<layer id="12" name="FirstStageFeatureExtractor/InceptionV2/InceptionV2/Conv2d_2c_3x3/Relu" precision="FP16" type="ReLU">
			<input>
				<port id="0">
					<dim>1</dim>
					<dim>192</dim>
					<dim>150</dim>
					<dim>256</dim>
				</port>
			</input>
			<output>
				<port id="1">
					<dim>1</dim>
					<dim>192</dim>
					<dim>150</dim>
					<dim>256</dim>
				</port>
			</output>
		</layer>
		<layer id="13" name="FirstStageFeatureExtractor/InceptionV2/InceptionV2/MaxPool_3a_3x3/MaxPool" precision="FP16" type="Pooling">
			<data auto_pad="same_upper" exclude-pad="true" kernel="3,3" pads_begin="0,0" pads_end="1,1" pool-method="max" strides="2,2"/>
			<input>
				<port id="0">
					<dim>1</dim>
					<dim>192</dim>
					<dim>150</dim>
					<dim>256</dim>
				</port>
			</input>
			<output>
				<port id="1">
					<dim>1</dim>
					<dim>192</dim>
					<dim>75</dim>
					<dim>128</dim>
				</port>
			</output>
		</layer>
		<layer id="14" name="FirstStageFeatureExtractor/InceptionV2/InceptionV2/Mixed_3b/Branch_0/Conv2d_0a_1x1/Conv2D" precision="FP16" type="Convolution">
			<data auto_pad="same_upper" dilations="1,1" group="1" kernel="1,1" output="64" pads_begin="0,0" pads_end="0,0" strides="1,1"/>
			<input>
				<port id="0">
					<dim>1</dim>
					<dim>192</dim>
					<dim>75</dim>
					<dim>128</dim>
				</port>
			</input>
			<output>
				<port id="2">
					<dim>1</dim>
					<dim>64</dim>
					<dim>75</dim>
					<dim>128</dim>
				</port>
			</output>
			<blobs>
				<weights offset="235952" size="24576"/>
			</blobs>
		</layer>
		<layer id="15" name="ScaleShift/FirstStageFeatureExtractor/InceptionV2/InceptionV2/Mixed_3b/Branch_0/Conv2d_0a_1x1/BatchNorm/FusedBatchNorm/Add" precision="FP16" type="ScaleShift">
			<input>
				<port id="0">
					<dim>1</dim>
					<dim>64</dim>
					<dim>75</dim>
					<dim>128</dim>
				</port>
			</input>
			<output>
				<port id="3">
					<dim>1</dim>
					<dim>64</dim>
					<dim>75</dim>
					<dim>128</dim>
				</port>
			</output>
			<blobs>
				<weights offset="5424" size="128"/>
				<biases offset="260528" size="128"/>
			</blobs>
		</layer>
		<layer id="16" name="FirstStageFeatureExtractor/InceptionV2/InceptionV2/Mixed_3b/Branch_0/Conv2d_0a_1x1/Relu" precision="FP16" type="ReLU">
			<input>
				<port id="0">
					<dim>1</dim>
					<dim>64</dim>
					<dim>75</dim>
					<dim>128</dim>
				</port>
			</input>
			<output>
				<port id="1">
					<dim>1</dim>
					<dim>64</dim>
					<dim>75</dim>
					<dim>128</dim>
				</port>
			</output>
		</layer>
		<layer id="17" name="FirstStageFeatureExtractor/InceptionV2/InceptionV2/Mixed_3b/Branch_1/Conv2d_0a_1x1/Conv2D" precision="FP16" type="Convolution">
			<data auto_pad="same_upper" dilations="1,1" group="1" kernel="1,1" output="64" pads_begin="0,0" pads_end="0,0" strides="1,1"/>
			<input>
				<port id="0">
					<dim>1</dim>
					<dim>192</dim>
					<dim>75</dim>
					<dim>128</dim>
				</port>
			</input>
			<output>
				<port id="2">
					<dim>1</dim>
					<dim>64</dim>
					<dim>75</dim>
					<dim>128</dim>
				</port>
			</output>
			<blobs>
				<weights offset="260656" size="24576"/>
			</blobs>
		</layer>
		<layer id="18" name="ScaleShift/FirstStageFeatureExtractor/InceptionV2/InceptionV2/Mixed_3b/Branch_1/Conv2d_0a_1x1/BatchNorm/FusedBatchNorm/Add" precision="FP16" type="ScaleShift">
			<input>
				<port id="0">
					<dim>1</dim>
					<dim>64</dim>
					<dim>75</dim>
					<dim>128</dim>
				</port>
			</input>
			<output>
				<port id="3">
					<dim>1</dim>
					<dim>64</dim>
					<dim>75</dim>
					<dim>128</dim>
				</port>
			</output>
			<blobs>
				<weights offset="5424" size="128"/>
				<biases offset="285232" size="128"/>
			</blobs>
		</layer>
		<layer id="19" name="FirstStageFeatureExtractor/InceptionV2/InceptionV2/Mixed_3b/Branch_1/Conv2d_0a_1x1/Relu" precision="FP16" type="ReLU">
			<input>
				<port id="0">
					<dim>1</dim>
					<dim>64</dim>
					<dim>75</dim>
					<dim>128</dim>
				</port>
			</input>
			<output>
				<port id="1">
					<dim>1</dim>
					<dim>64</dim>
					<dim>75</dim>
					<dim>128</dim>
				</port>
			</output>
		</layer>
		<layer id="20" name="FirstStageFeatureExtractor/InceptionV2/InceptionV2/Mixed_3b/Branch_1/Conv2d_0b_3x3/Conv2D" precision="FP16" type="Convolution">
			<data auto_pad="same_upper" dilations="1,1" group="1" kernel="3,3" output="64" pads_begin="1,1" pads_end="1,1" strides="1,1"/>
			<input>
				<port id="0">
					<dim>1</dim>
					<dim>64</dim>
					<dim>75</dim>
					<dim>128</dim>
				</port>
			</input>
			<output>
				<port id="2">
					<dim>1</dim>
					<dim>64</dim>
					<dim>75</dim>
					<dim>128</dim>
				</port>
			</output>
			<blobs>
				<weights offset="285360" size="73728"/>
			</blobs>
		</layer>
		<layer id="21" name="ScaleShift/FirstStageFeatureExtractor/InceptionV2/InceptionV2/Mixed_3b/Branch_1/Conv2d_0b_3x3/BatchNorm/FusedBatchNorm/Add" precision="FP16" type="ScaleShift">
			<input>
				<port id="0">
					<dim>1</dim>
					<dim>64</dim>
					<dim>75</dim>
					<dim>128</dim>
				</port>
			</input>
			<output>
				<port id="3">
					<dim>1</dim>
					<dim>64</dim>
					<dim>75</dim>
					<dim>128</dim>
				</port>
			</output>
			<blobs>
				<weights offset="5424" size="128"/>
				<biases offset="359088" size="128"/>
			</blobs>
		</layer>
		<layer id="22" name="FirstStageFeatureExtractor/InceptionV2/InceptionV2/Mixed_3b/Branch_1/Conv2d_0b_3x3/Relu" precision="FP16" type="ReLU">
			<input>
				<port id="0">
					<dim>1</dim>
					<dim>64</dim>
					<dim>75</dim>
					<dim>128</dim>
				</port>
			</input>
			<output>
				<port id="1">
					<dim>1</dim>
					<dim>64</dim>
					<dim>75</dim>
					<dim>128</dim>
				</port>
			</output>
		</layer>
		<layer id="23" name="FirstStageFeatureExtractor/InceptionV2/InceptionV2/Mixed_3b/Branch_2/Conv2d_0a_1x1/Conv2D" precision="FP16" type="Convolution">
			<data auto_pad="same_upper" dilations="1,1" group="1" kernel="1,1" output="64" pads_begin="0,0" pads_end="0,0" strides="1,1"/>
			<input>
				<port id="0">
					<dim>1</dim>
					<dim>192</dim>
					<dim>75</dim>
					<dim>128</dim>
				</port>
			</input>
			<output>
				<port id="2">
					<dim>1</dim>
					<dim>64</dim>
					<dim>75</dim>
					<dim>128</dim>
				</port>
			</output>
			<blobs>
				<weights offset="359216" size="24576"/>
			</blobs>
		</layer>
		<layer id="24" name="ScaleShift/FirstStageFeatureExtractor/InceptionV2/InceptionV2/Mixed_3b/Branch_2/Conv2d_0a_1x1/BatchNorm/FusedBatchNorm/Add" precision="FP16" type="ScaleShift">
			<input>
				<port id="0">
					<dim>1</dim>
					<dim>64</dim>
					<dim>75</dim>
					<dim>128</dim>
				</port>
			</input>
			<output>
				<port id="3">
					<dim>1</dim>
					<dim>64</dim>
					<dim>75</dim>
					<dim>128</dim>
				</port>
			</output>
			<blobs>
				<weights offset="5424" size="128"/>
				<biases offset="383792" size="128"/>
			</blobs>
		</layer>
		<layer id="25" name="FirstStageFeatureExtractor/InceptionV2/InceptionV2/Mixed_3b/Branch_2/Conv2d_0a_1x1/Relu" precision="FP16" type="ReLU">
			<input>
				<port id="0">
					<dim>1</dim>
					<dim>64</dim>
					<dim>75</dim>
					<dim>128</dim>
				</port>
			</input>
			<output>
				<port id="1">
					<dim>1</dim>
					<dim>64</dim>
					<dim>75</dim>
					<dim>128</dim>
				</port>
			</output>
		</layer>
		<layer id="26" name="FirstStageFeatureExtractor/InceptionV2/InceptionV2/Mixed_3b/Branch_2/Conv2d_0b_3x3/Conv2D" precision="FP16" type="Convolution">
			<data auto_pad="same_upper" dilations="1,1" group="1" kernel="3,3" output="96" pads_begin="1,1" pads_end="1,1" strides="1,1"/>
			<input>
				<port id="0">
					<dim>1</dim>
					<dim>64</dim>
					<dim>75</dim>
					<dim>128</dim>
				</port>
			</input>
			<output>
				<port id="2">
					<dim>1</dim>
					<dim>96</dim>
					<dim>75</dim>
					<dim>128</dim>
				</port>
			</output>
			<blobs>
				<weights offset="383920" size="110592"/>
			</blobs>
		</layer>
		<layer id="27" name="ScaleShift/FirstStageFeatureExtractor/InceptionV2/InceptionV2/Mixed_3b/Branch_2/Conv2d_0b_3x3/BatchNorm/FusedBatchNorm/Add" precision="FP16" type="ScaleShift">
			<input>
				<port id="0">
					<dim>1</dim>
					<dim>96</dim>
					<dim>75</dim>
					<dim>128</dim>
				</port>
			</input>
			<output>
				<port id="3">
					<dim>1</dim>
					<dim>96</dim>
					<dim>75</dim>
					<dim>128</dim>
				</port>
			</output>
			<blobs>
				<weights offset="494512" size="192"/>
				<biases offset="494704" size="192"/>
			</blobs>
		</layer>
		<layer id="28" name="FirstStageFeatureExtractor/InceptionV2/InceptionV2/Mixed_3b/Branch_2/Conv2d_0b_3x3/Relu" precision="FP16" type="ReLU">
			<input>
				<port id="0">
					<dim>1</dim>
					<dim>96</dim>
					<dim>75</dim>
					<dim>128</dim>
				</port>
			</input>
			<output>
				<port id="1">
					<dim>1</dim>
					<dim>96</dim>
					<dim>75</dim>
					<dim>128</dim>
				</port>
			</output>
		</layer>
		<layer id="29" name="FirstStageFeatureExtractor/InceptionV2/InceptionV2/Mixed_3b/Branch_2/Conv2d_0c_3x3/Conv2D" precision="FP16" type="Convolution">
			<data auto_pad="same_upper" dilations="1,1" group="1" kernel="3,3" output="96" pads_begin="1,1" pads_end="1,1" strides="1,1"/>
			<input>
				<port id="0">
					<dim>1</dim>
					<dim>96</dim>
					<dim>75</dim>
					<dim>128</dim>
				</port>
			</input>
			<output>
				<port id="2">
					<dim>1</dim>
					<dim>96</dim>
					<dim>75</dim>
					<dim>128</dim>
				</port>
			</output>
			<blobs>
				<weights offset="494896" size="165888"/>
			</blobs>
		</layer>
		<layer id="30" name="ScaleShift/FirstStageFeatureExtractor/InceptionV2/InceptionV2/Mixed_3b/Branch_2/Conv2d_0c_3x3/BatchNorm/FusedBatchNorm/Add" precision="FP16" type="ScaleShift">
			<input>
				<port id="0">
					<dim>1</dim>
					<dim>96</dim>
					<dim>75</dim>
					<dim>128</dim>
				</port>
			</input>
			<output>
				<port id="3">
					<dim>1</dim>
					<dim>96</dim>
					<dim>75</dim>
					<dim>128</dim>
				</port>
			</output>
			<blobs>
				<weights offset="494512" size="192"/>
				<biases offset="660784" size="192"/>
			</blobs>
		</layer>
		<layer id="31" name="FirstStageFeatureExtractor/InceptionV2/InceptionV2/Mixed_3b/Branch_2/Conv2d_0c_3x3/Relu" precision="FP16" type="ReLU">
			<input>
				<port id="0">
					<dim>1</dim>
					<dim>96</dim>
					<dim>75</dim>
					<dim>128</dim>
				</port>
			</input>
			<output>
				<port id="1">
					<dim>1</dim>
					<dim>96</dim>
					<dim>75</dim>
					<dim>128</dim>
				</port>
			</output>
		</layer>
		<layer id="32" name="FirstStageFeatureExtractor/InceptionV2/InceptionV2/Mixed_3b/Branch_3/AvgPool_0a_3x3/AvgPool" precision="FP16" type="Pooling">
			<data auto_pad="same_upper" exclude-pad="true" kernel="3,3" pads_begin="1,1" pads_end="1,1" pool-method="avg" strides="1,1"/>
			<input>
				<port id="0">
					<dim>1</dim>
					<dim>192</dim>
					<dim>75</dim>
					<dim>128</dim>
				</port>
			</input>
			<output>
				<port id="1">
					<dim>1</dim>
					<dim>192</dim>
					<dim>75</dim>
					<dim>128</dim>
				</port>
			</output>
		</layer>
		<layer id="33" name="FirstStageFeatureExtractor/InceptionV2/InceptionV2/Mixed_3b/Branch_3/Conv2d_0b_1x1/Conv2D" precision="FP16" type="Convolution">
			<data auto_pad="same_upper" dilations="1,1" group="1" kernel="1,1" output="32" pads_begin="0,0" pads_end="0,0" strides="1,1"/>
			<input>
				<port id="0">
					<dim>1</dim>
					<dim>192</dim>
					<dim>75</dim>
					<dim>128</dim>
				</port>
			</input>
			<output>
				<port id="2">
					<dim>1</dim>
					<dim>32</dim>
					<dim>75</dim>
					<dim>128</dim>
				</port>
			</output>
			<blobs>
				<weights offset="660976" size="12288"/>
			</blobs>
		</layer>
		<layer id="34" name="ScaleShift/FirstStageFeatureExtractor/InceptionV2/InceptionV2/Mixed_3b/Branch_3/Conv2d_0b_1x1/BatchNorm/FusedBatchNorm/Add" precision="FP16" type="ScaleShift">
			<input>
				<port id="0">
					<dim>1</dim>
					<dim>32</dim>
					<dim>75</dim>
					<dim>128</dim>
				</port>
			</input>
			<output>
				<port id="3">
					<dim>1</dim>
					<dim>32</dim>
					<dim>75</dim>
					<dim>128</dim>
				</port>
			</output>
			<blobs>
				<weights offset="673264" size="64"/>
				<biases offset="673328" size="64"/>
			</blobs>
		</layer>
		<layer id="35" name="FirstStageFeatureExtractor/InceptionV2/InceptionV2/Mixed_3b/Branch_3/Conv2d_0b_1x1/Relu" precision="FP16" type="ReLU">
			<input>
				<port id="0">
					<dim>1</dim>
					<dim>32</dim>
					<dim>75</dim>
					<dim>128</dim>
				</port>
			</input>
			<output>
				<port id="1">
					<dim>1</dim>
					<dim>32</dim>
					<dim>75</dim>
					<dim>128</dim>
				</port>
			</output>
		</layer>
		<layer id="36" name="FirstStageFeatureExtractor/InceptionV2/InceptionV2/Mixed_3b/concat" precision="FP16" type="Concat">
			<data axis="1"/>
			<input>
				<port id="0">
					<dim>1</dim>
					<dim>64</dim>
					<dim>75</dim>
					<dim>128</dim>
				</port>
				<port id="1">
					<dim>1</dim>
					<dim>64</dim>
					<dim>75</dim>
					<dim>128</dim>
				</port>
				<port id="2">
					<dim>1</dim>
					<dim>96</dim>
					<dim>75</dim>
					<dim>128</dim>
				</port>
				<port id="3">
					<dim>1</dim>
					<dim>32</dim>
					<dim>75</dim>
					<dim>128</dim>
				</port>
			</input>
			<output>
				<port id="4">
					<dim>1</dim>
					<dim>256</dim>
					<dim>75</dim>
					<dim>128</dim>
				</port>
			</output>
		</layer>
		<layer id="37" name="FirstStageFeatureExtractor/InceptionV2/InceptionV2/Mixed_3c/Branch_0/Conv2d_0a_1x1/Conv2D" precision="FP16" type="Convolution">
			<data auto_pad="same_upper" dilations="1,1" group="1" kernel="1,1" output="64" pads_begin="0,0" pads_end="0,0" strides="1,1"/>
			<input>
				<port id="0">
					<dim>1</dim>
					<dim>256</dim>
					<dim>75</dim>
					<dim>128</dim>
				</port>
			</input>
			<output>
				<port id="2">
					<dim>1</dim>
					<dim>64</dim>
					<dim>75</dim>
					<dim>128</dim>
				</port>
			</output>
			<blobs>
				<weights offset="673392" size="32768"/>
			</blobs>
		</layer>
		<layer id="38" name="ScaleShift/FirstStageFeatureExtractor/InceptionV2/InceptionV2/Mixed_3c/Branch_0/Conv2d_0a_1x1/BatchNorm/FusedBatchNorm/Add" precision="FP16" type="ScaleShift">
			<input>
				<port id="0">
					<dim>1</dim>
					<dim>64</dim>
					<dim>75</dim>
					<dim>128</dim>
				</port>
			</input>
			<output>
				<port id="3">
					<dim>1</dim>
					<dim>64</dim>
					<dim>75</dim>
					<dim>128</dim>
				</port>
			</output>
			<blobs>
				<weights offset="5424" size="128"/>
				<biases offset="706160" size="128"/>
			</blobs>
		</layer>
		<layer id="39" name="FirstStageFeatureExtractor/InceptionV2/InceptionV2/Mixed_3c/Branch_0/Conv2d_0a_1x1/Relu" precision="FP16" type="ReLU">
			<input>
				<port id="0">
					<dim>1</dim>
					<dim>64</dim>
					<dim>75</dim>
					<dim>128</dim>
				</port>
			</input>
			<output>
				<port id="1">
					<dim>1</dim>
					<dim>64</dim>
					<dim>75</dim>
					<dim>128</dim>
				</port>
			</output>
		</layer>
		<layer id="40" name="FirstStageFeatureExtractor/InceptionV2/InceptionV2/Mixed_3c/Branch_1/Conv2d_0a_1x1/Conv2D" precision="FP16" type="Convolution">
			<data auto_pad="same_upper" dilations="1,1" group="1" kernel="1,1" output="64" pads_begin="0,0" pads_end="0,0" strides="1,1"/>
			<input>
				<port id="0">
					<dim>1</dim>
					<dim>256</dim>
					<dim>75</dim>
					<dim>128</dim>
				</port>
			</input>
			<output>
				<port id="2">
					<dim>1</dim>
					<dim>64</dim>
					<dim>75</dim>
					<dim>128</dim>
				</port>
			</output>
			<blobs>
				<weights offset="706288" size="32768"/>
			</blobs>
		</layer>
		<layer id="41" name="ScaleShift/FirstStageFeatureExtractor/InceptionV2/InceptionV2/Mixed_3c/Branch_1/Conv2d_0a_1x1/BatchNorm/FusedBatchNorm/Add" precision="FP16" type="ScaleShift">
			<input>
				<port id="0">
					<dim>1</dim>
					<dim>64</dim>
					<dim>75</dim>
					<dim>128</dim>
				</port>
			</input>
			<output>
				<port id="3">
					<dim>1</dim>
					<dim>64</dim>
					<dim>75</dim>
					<dim>128</dim>
				</port>
			</output>
			<blobs>
				<weights offset="5424" size="128"/>
				<biases offset="739056" size="128"/>
			</blobs>
		</layer>
		<layer id="42" name="FirstStageFeatureExtractor/InceptionV2/InceptionV2/Mixed_3c/Branch_1/Conv2d_0a_1x1/Relu" precision="FP16" type="ReLU">
			<input>
				<port id="0">
					<dim>1</dim>
					<dim>64</dim>
					<dim>75</dim>
					<dim>128</dim>
				</port>
			</input>
			<output>
				<port id="1">
					<dim>1</dim>
					<dim>64</dim>
					<dim>75</dim>
					<dim>128</dim>
				</port>
			</output>
		</layer>
		<layer id="43" name="FirstStageFeatureExtractor/InceptionV2/InceptionV2/Mixed_3c/Branch_1/Conv2d_0b_3x3/Conv2D" precision="FP16" type="Convolution">
			<data auto_pad="same_upper" dilations="1,1" group="1" kernel="3,3" output="96" pads_begin="1,1" pads_end="1,1" strides="1,1"/>
			<input>
				<port id="0">
					<dim>1</dim>
					<dim>64</dim>
					<dim>75</dim>
					<dim>128</dim>
				</port>
			</input>
			<output>
				<port id="2">
					<dim>1</dim>
					<dim>96</dim>
					<dim>75</dim>
					<dim>128</dim>
				</port>
			</output>
			<blobs>
				<weights offset="739184" size="110592"/>
			</blobs>
		</layer>
		<layer id="44" name="ScaleShift/FirstStageFeatureExtractor/InceptionV2/InceptionV2/Mixed_3c/Branch_1/Conv2d_0b_3x3/BatchNorm/FusedBatchNorm/Add" precision="FP16" type="ScaleShift">
			<input>
				<port id="0">
					<dim>1</dim>
					<dim>96</dim>
					<dim>75</dim>
					<dim>128</dim>
				</port>
			</input>
			<output>
				<port id="3">
					<dim>1</dim>
					<dim>96</dim>
					<dim>75</dim>
					<dim>128</dim>
				</port>
			</output>
			<blobs>
				<weights offset="494512" size="192"/>
				<biases offset="849776" size="192"/>
			</blobs>
		</layer>
		<layer id="45" name="FirstStageFeatureExtractor/InceptionV2/InceptionV2/Mixed_3c/Branch_1/Conv2d_0b_3x3/Relu" precision="FP16" type="ReLU">
			<input>
				<port id="0">
					<dim>1</dim>
					<dim>96</dim>
					<dim>75</dim>
					<dim>128</dim>
				</port>
			</input>
			<output>
				<port id="1">
					<dim>1</dim>
					<dim>96</dim>
					<dim>75</dim>
					<dim>128</dim>
				</port>
			</output>
		</layer>
		<layer id="46" name="FirstStageFeatureExtractor/InceptionV2/InceptionV2/Mixed_3c/Branch_2/Conv2d_0a_1x1/Conv2D" precision="FP16" type="Convolution">
			<data auto_pad="same_upper" dilations="1,1" group="1" kernel="1,1" output="64" pads_begin="0,0" pads_end="0,0" strides="1,1"/>
			<input>
				<port id="0">
					<dim>1</dim>
					<dim>256</dim>
					<dim>75</dim>
					<dim>128</dim>
				</port>
			</input>
			<output>
				<port id="2">
					<dim>1</dim>
					<dim>64</dim>
					<dim>75</dim>
					<dim>128</dim>
				</port>
			</output>
			<blobs>
				<weights offset="849968" size="32768"/>
			</blobs>
		</layer>
		<layer id="47" name="ScaleShift/FirstStageFeatureExtractor/InceptionV2/InceptionV2/Mixed_3c/Branch_2/Conv2d_0a_1x1/BatchNorm/FusedBatchNorm/Add" precision="FP16" type="ScaleShift">
			<input>
				<port id="0">
					<dim>1</dim>
					<dim>64</dim>
					<dim>75</dim>
					<dim>128</dim>
				</port>
			</input>
			<output>
				<port id="3">
					<dim>1</dim>
					<dim>64</dim>
					<dim>75</dim>
					<dim>128</dim>
				</port>
			</output>
			<blobs>
				<weights offset="5424" size="128"/>
				<biases offset="882736" size="128"/>
			</blobs>
		</layer>
		<layer id="48" name="FirstStageFeatureExtractor/InceptionV2/InceptionV2/Mixed_3c/Branch_2/Conv2d_0a_1x1/Relu" precision="FP16" type="ReLU">
			<input>
				<port id="0">
					<dim>1</dim>
					<dim>64</dim>
					<dim>75</dim>
					<dim>128</dim>
				</port>
			</input>
			<output>
				<port id="1">
					<dim>1</dim>
					<dim>64</dim>
					<dim>75</dim>
					<dim>128</dim>
				</port>
			</output>
		</layer>
		<layer id="49" name="FirstStageFeatureExtractor/InceptionV2/InceptionV2/Mixed_3c/Branch_2/Conv2d_0b_3x3/Conv2D" precision="FP16" type="Convolution">
			<data auto_pad="same_upper" dilations="1,1" group="1" kernel="3,3" output="96" pads_begin="1,1" pads_end="1,1" strides="1,1"/>
			<input>
				<port id="0">
					<dim>1</dim>
					<dim>64</dim>
					<dim>75</dim>
					<dim>128</dim>
				</port>
			</input>
			<output>
				<port id="2">
					<dim>1</dim>
					<dim>96</dim>
					<dim>75</dim>
					<dim>128</dim>
				</port>
			</output>
			<blobs>
				<weights offset="882864" size="110592"/>
			</blobs>
		</layer>
		<layer id="50" name="ScaleShift/FirstStageFeatureExtractor/InceptionV2/InceptionV2/Mixed_3c/Branch_2/Conv2d_0b_3x3/BatchNorm/FusedBatchNorm/Add" precision="FP16" type="ScaleShift">
			<input>
				<port id="0">
					<dim>1</dim>
					<dim>96</dim>
					<dim>75</dim>
					<dim>128</dim>
				</port>
			</input>
			<output>
				<port id="3">
					<dim>1</dim>
					<dim>96</dim>
					<dim>75</dim>
					<dim>128</dim>
				</port>
			</output>
			<blobs>
				<weights offset="494512" size="192"/>
				<biases offset="993456" size="192"/>
			</blobs>
		</layer>
		<layer id="51" name="FirstStageFeatureExtractor/InceptionV2/InceptionV2/Mixed_3c/Branch_2/Conv2d_0b_3x3/Relu" precision="FP16" type="ReLU">
			<input>
				<port id="0">
					<dim>1</dim>
					<dim>96</dim>
					<dim>75</dim>
					<dim>128</dim>
				</port>
			</input>
			<output>
				<port id="1">
					<dim>1</dim>
					<dim>96</dim>
					<dim>75</dim>
					<dim>128</dim>
				</port>
			</output>
		</layer>
		<layer id="52" name="FirstStageFeatureExtractor/InceptionV2/InceptionV2/Mixed_3c/Branch_2/Conv2d_0c_3x3/Conv2D" precision="FP16" type="Convolution">
			<data auto_pad="same_upper" dilations="1,1" group="1" kernel="3,3" output="96" pads_begin="1,1" pads_end="1,1" strides="1,1"/>
			<input>
				<port id="0">
					<dim>1</dim>
					<dim>96</dim>
					<dim>75</dim>
					<dim>128</dim>
				</port>
			</input>
			<output>
				<port id="2">
					<dim>1</dim>
					<dim>96</dim>
					<dim>75</dim>
					<dim>128</dim>
				</port>
			</output>
			<blobs>
				<weights offset="993648" size="165888"/>
			</blobs>
		</layer>
		<layer id="53" name="ScaleShift/FirstStageFeatureExtractor/InceptionV2/InceptionV2/Mixed_3c/Branch_2/Conv2d_0c_3x3/BatchNorm/FusedBatchNorm/Add" precision="FP16" type="ScaleShift">
			<input>
				<port id="0">
					<dim>1</dim>
					<dim>96</dim>
					<dim>75</dim>
					<dim>128</dim>
				</port>
			</input>
			<output>
				<port id="3">
					<dim>1</dim>
					<dim>96</dim>
					<dim>75</dim>
					<dim>128</dim>
				</port>
			</output>
			<blobs>
				<weights offset="494512" size="192"/>
				<biases offset="1159536" size="192"/>
			</blobs>
		</layer>
		<layer id="54" name="FirstStageFeatureExtractor/InceptionV2/InceptionV2/Mixed_3c/Branch_2/Conv2d_0c_3x3/Relu" precision="FP16" type="ReLU">
			<input>
				<port id="0">
					<dim>1</dim>
					<dim>96</dim>
					<dim>75</dim>
					<dim>128</dim>
				</port>
			</input>
			<output>
				<port id="1">
					<dim>1</dim>
					<dim>96</dim>
					<dim>75</dim>
					<dim>128</dim>
				</port>
			</output>
		</layer>
		<layer id="55" name="FirstStageFeatureExtractor/InceptionV2/InceptionV2/Mixed_3c/Branch_3/AvgPool_0a_3x3/AvgPool" precision="FP16" type="Pooling">
			<data auto_pad="same_upper" exclude-pad="true" kernel="3,3" pads_begin="1,1" pads_end="1,1" pool-method="avg" strides="1,1"/>
			<input>
				<port id="0">
					<dim>1</dim>
					<dim>256</dim>
					<dim>75</dim>
					<dim>128</dim>
				</port>
			</input>
			<output>
				<port id="1">
					<dim>1</dim>
					<dim>256</dim>
					<dim>75</dim>
					<dim>128</dim>
				</port>
			</output>
		</layer>
		<layer id="56" name="FirstStageFeatureExtractor/InceptionV2/InceptionV2/Mixed_3c/Branch_3/Conv2d_0b_1x1/Conv2D" precision="FP16" type="Convolution">
			<data auto_pad="same_upper" dilations="1,1" group="1" kernel="1,1" output="64" pads_begin="0,0" pads_end="0,0" strides="1,1"/>
			<input>
				<port id="0">
					<dim>1</dim>
					<dim>256</dim>
					<dim>75</dim>
					<dim>128</dim>
				</port>
			</input>
			<output>
				<port id="2">
					<dim>1</dim>
					<dim>64</dim>
					<dim>75</dim>
					<dim>128</dim>
				</port>
			</output>
			<blobs>
				<weights offset="1159728" size="32768"/>
			</blobs>
		</layer>
		<layer id="57" name="ScaleShift/FirstStageFeatureExtractor/InceptionV2/InceptionV2/Mixed_3c/Branch_3/Conv2d_0b_1x1/BatchNorm/FusedBatchNorm/Add" precision="FP16" type="ScaleShift">
			<input>
				<port id="0">
					<dim>1</dim>
					<dim>64</dim>
					<dim>75</dim>
					<dim>128</dim>
				</port>
			</input>
			<output>
				<port id="3">
					<dim>1</dim>
					<dim>64</dim>
					<dim>75</dim>
					<dim>128</dim>
				</port>
			</output>
			<blobs>
				<weights offset="5424" size="128"/>
				<biases offset="1192496" size="128"/>
			</blobs>
		</layer>
		<layer id="58" name="FirstStageFeatureExtractor/InceptionV2/InceptionV2/Mixed_3c/Branch_3/Conv2d_0b_1x1/Relu" precision="FP16" type="ReLU">
			<input>
				<port id="0">
					<dim>1</dim>
					<dim>64</dim>
					<dim>75</dim>
					<dim>128</dim>
				</port>
			</input>
			<output>
				<port id="1">
					<dim>1</dim>
					<dim>64</dim>
					<dim>75</dim>
					<dim>128</dim>
				</port>
			</output>
		</layer>
		<layer id="59" name="FirstStageFeatureExtractor/InceptionV2/InceptionV2/Mixed_3c/concat" precision="FP16" type="Concat">
			<data axis="1"/>
			<input>
				<port id="0">
					<dim>1</dim>
					<dim>64</dim>
					<dim>75</dim>
					<dim>128</dim>
				</port>
				<port id="1">
					<dim>1</dim>
					<dim>96</dim>
					<dim>75</dim>
					<dim>128</dim>
				</port>
				<port id="2">
					<dim>1</dim>
					<dim>96</dim>
					<dim>75</dim>
					<dim>128</dim>
				</port>
				<port id="3">
					<dim>1</dim>
					<dim>64</dim>
					<dim>75</dim>
					<dim>128</dim>
				</port>
			</input>
			<output>
				<port id="4">
					<dim>1</dim>
					<dim>320</dim>
					<dim>75</dim>
					<dim>128</dim>
				</port>
			</output>
		</layer>
		<layer id="60" name="FirstStageFeatureExtractor/InceptionV2/InceptionV2/Mixed_4a/Branch_0/Conv2d_0a_1x1/Conv2D" precision="FP16" type="Convolution">
			<data auto_pad="same_upper" dilations="1,1" group="1" kernel="1,1" output="128" pads_begin="0,0" pads_end="0,0" strides="1,1"/>
			<input>
				<port id="0">
					<dim>1</dim>
					<dim>320</dim>
					<dim>75</dim>
					<dim>128</dim>
				</port>
			</input>
			<output>
				<port id="2">
					<dim>1</dim>
					<dim>128</dim>
					<dim>75</dim>
					<dim>128</dim>
				</port>
			</output>
			<blobs>
				<weights offset="1192624" size="81920"/>
			</blobs>
		</layer>
		<layer id="61" name="ScaleShift/FirstStageFeatureExtractor/InceptionV2/InceptionV2/Mixed_4a/Branch_0/Conv2d_0a_1x1/BatchNorm/FusedBatchNorm/Add" precision="FP16" type="ScaleShift">
			<input>
				<port id="0">
					<dim>1</dim>
					<dim>128</dim>
					<dim>75</dim>
					<dim>128</dim>
				</port>
			</input>
			<output>
				<port id="3">
					<dim>1</dim>
					<dim>128</dim>
					<dim>75</dim>
					<dim>128</dim>
				</port>
			</output>
			<blobs>
				<weights offset="1274544" size="256"/>
				<biases offset="1274800" size="256"/>
			</blobs>
		</layer>
		<layer id="62" name="FirstStageFeatureExtractor/InceptionV2/InceptionV2/Mixed_4a/Branch_0/Conv2d_0a_1x1/Relu" precision="FP16" type="ReLU">
			<input>
				<port id="0">
					<dim>1</dim>
					<dim>128</dim>
					<dim>75</dim>
					<dim>128</dim>
				</port>
			</input>
			<output>
				<port id="1">
					<dim>1</dim>
					<dim>128</dim>
					<dim>75</dim>
					<dim>128</dim>
				</port>
			</output>
		</layer>
		<layer id="63" name="FirstStageFeatureExtractor/InceptionV2/InceptionV2/Mixed_4a/Branch_0/Conv2d_1a_3x3/Conv2D" precision="FP16" type="Convolution">
			<data auto_pad="same_upper" dilations="1,1" group="1" kernel="3,3" output="160" pads_begin="1,0" pads_end="1,1" strides="2,2"/>
			<input>
				<port id="0">
					<dim>1</dim>
					<dim>128</dim>
					<dim>75</dim>
					<dim>128</dim>
				</port>
			</input>
			<output>
				<port id="2">
					<dim>1</dim>
					<dim>160</dim>
					<dim>38</dim>
					<dim>64</dim>
				</port>
			</output>
			<blobs>
				<weights offset="1275056" size="368640"/>
			</blobs>
		</layer>
		<layer id="64" name="ScaleShift/FirstStageFeatureExtractor/InceptionV2/InceptionV2/Mixed_4a/Branch_0/Conv2d_1a_3x3/BatchNorm/FusedBatchNorm/Add" precision="FP16" type="ScaleShift">
			<input>
				<port id="0">
					<dim>1</dim>
					<dim>160</dim>
					<dim>38</dim>
					<dim>64</dim>
				</port>
			</input>
			<output>
				<port id="3">
					<dim>1</dim>
					<dim>160</dim>
					<dim>38</dim>
					<dim>64</dim>
				</port>
			</output>
			<blobs>
				<weights offset="1643696" size="320"/>
				<biases offset="1644016" size="320"/>
			</blobs>
		</layer>
		<layer id="65" name="FirstStageFeatureExtractor/InceptionV2/InceptionV2/Mixed_4a/Branch_0/Conv2d_1a_3x3/Relu" precision="FP16" type="ReLU">
			<input>
				<port id="0">
					<dim>1</dim>
					<dim>160</dim>
					<dim>38</dim>
					<dim>64</dim>
				</port>
			</input>
			<output>
				<port id="1">
					<dim>1</dim>
					<dim>160</dim>
					<dim>38</dim>
					<dim>64</dim>
				</port>
			</output>
		</layer>
		<layer id="66" name="FirstStageFeatureExtractor/InceptionV2/InceptionV2/Mixed_4a/Branch_1/Conv2d_0a_1x1/Conv2D" precision="FP16" type="Convolution">
			<data auto_pad="same_upper" dilations="1,1" group="1" kernel="1,1" output="64" pads_begin="0,0" pads_end="0,0" strides="1,1"/>
			<input>
				<port id="0">
					<dim>1</dim>
					<dim>320</dim>
					<dim>75</dim>
					<dim>128</dim>
				</port>
			</input>
			<output>
				<port id="2">
					<dim>1</dim>
					<dim>64</dim>
					<dim>75</dim>
					<dim>128</dim>
				</port>
			</output>
			<blobs>
				<weights offset="1644336" size="40960"/>
			</blobs>
		</layer>
		<layer id="67" name="ScaleShift/FirstStageFeatureExtractor/InceptionV2/InceptionV2/Mixed_4a/Branch_1/Conv2d_0a_1x1/BatchNorm/FusedBatchNorm/Add" precision="FP16" type="ScaleShift">
			<input>
				<port id="0">
					<dim>1</dim>
					<dim>64</dim>
					<dim>75</dim>
					<dim>128</dim>
				</port>
			</input>
			<output>
				<port id="3">
					<dim>1</dim>
					<dim>64</dim>
					<dim>75</dim>
					<dim>128</dim>
				</port>
			</output>
			<blobs>
				<weights offset="5424" size="128"/>
				<biases offset="1685296" size="128"/>
			</blobs>
		</layer>
		<layer id="68" name="FirstStageFeatureExtractor/InceptionV2/InceptionV2/Mixed_4a/Branch_1/Conv2d_0a_1x1/Relu" precision="FP16" type="ReLU">
			<input>
				<port id="0">
					<dim>1</dim>
					<dim>64</dim>
					<dim>75</dim>
					<dim>128</dim>
				</port>
			</input>
			<output>
				<port id="1">
					<dim>1</dim>
					<dim>64</dim>
					<dim>75</dim>
					<dim>128</dim>
				</port>
			</output>
		</layer>
		<layer id="69" name="FirstStageFeatureExtractor/InceptionV2/InceptionV2/Mixed_4a/Branch_1/Conv2d_0b_3x3/Conv2D" precision="FP16" type="Convolution">
			<data auto_pad="same_upper" dilations="1,1" group="1" kernel="3,3" output="96" pads_begin="1,1" pads_end="1,1" strides="1,1"/>
			<input>
				<port id="0">
					<dim>1</dim>
					<dim>64</dim>
					<dim>75</dim>
					<dim>128</dim>
				</port>
			</input>
			<output>
				<port id="2">
					<dim>1</dim>
					<dim>96</dim>
					<dim>75</dim>
					<dim>128</dim>
				</port>
			</output>
			<blobs>
				<weights offset="1685424" size="110592"/>
			</blobs>
		</layer>
		<layer id="70" name="ScaleShift/FirstStageFeatureExtractor/InceptionV2/InceptionV2/Mixed_4a/Branch_1/Conv2d_0b_3x3/BatchNorm/FusedBatchNorm/Add" precision="FP16" type="ScaleShift">
			<input>
				<port id="0">
					<dim>1</dim>
					<dim>96</dim>
					<dim>75</dim>
					<dim>128</dim>
				</port>
			</input>
			<output>
				<port id="3">
					<dim>1</dim>
					<dim>96</dim>
					<dim>75</dim>
					<dim>128</dim>
				</port>
			</output>
			<blobs>
				<weights offset="494512" size="192"/>
				<biases offset="1796016" size="192"/>
			</blobs>
		</layer>
		<layer id="71" name="FirstStageFeatureExtractor/InceptionV2/InceptionV2/Mixed_4a/Branch_1/Conv2d_0b_3x3/Relu" precision="FP16" type="ReLU">
			<input>
				<port id="0">
					<dim>1</dim>
					<dim>96</dim>
					<dim>75</dim>
					<dim>128</dim>
				</port>
			</input>
			<output>
				<port id="1">
					<dim>1</dim>
					<dim>96</dim>
					<dim>75</dim>
					<dim>128</dim>
				</port>
			</output>
		</layer>
		<layer id="72" name="FirstStageFeatureExtractor/InceptionV2/InceptionV2/Mixed_4a/Branch_1/Conv2d_1a_3x3/Conv2D" precision="FP16" type="Convolution">
			<data auto_pad="same_upper" dilations="1,1" group="1" kernel="3,3" output="96" pads_begin="1,0" pads_end="1,1" strides="2,2"/>
			<input>
				<port id="0">
					<dim>1</dim>
					<dim>96</dim>
					<dim>75</dim>
					<dim>128</dim>
				</port>
			</input>
			<output>
				<port id="2">
					<dim>1</dim>
					<dim>96</dim>
					<dim>38</dim>
					<dim>64</dim>
				</port>
			</output>
			<blobs>
				<weights offset="1796208" size="165888"/>
			</blobs>
		</layer>
		<layer id="73" name="ScaleShift/FirstStageFeatureExtractor/InceptionV2/InceptionV2/Mixed_4a/Branch_1/Conv2d_1a_3x3/BatchNorm/FusedBatchNorm/Add" precision="FP16" type="ScaleShift">
			<input>
				<port id="0">
					<dim>1</dim>
					<dim>96</dim>
					<dim>38</dim>
					<dim>64</dim>
				</port>
			</input>
			<output>
				<port id="3">
					<dim>1</dim>
					<dim>96</dim>
					<dim>38</dim>
					<dim>64</dim>
				</port>
			</output>
			<blobs>
				<weights offset="494512" size="192"/>
				<biases offset="1962096" size="192"/>
			</blobs>
		</layer>
		<layer id="74" name="FirstStageFeatureExtractor/InceptionV2/InceptionV2/Mixed_4a/Branch_1/Conv2d_1a_3x3/Relu" precision="FP16" type="ReLU">
			<input>
				<port id="0">
					<dim>1</dim>
					<dim>96</dim>
					<dim>38</dim>
					<dim>64</dim>
				</port>
			</input>
			<output>
				<port id="1">
					<dim>1</dim>
					<dim>96</dim>
					<dim>38</dim>
					<dim>64</dim>
				</port>
			</output>
		</layer>
		<layer id="75" name="FirstStageFeatureExtractor/InceptionV2/InceptionV2/Mixed_4a/Branch_2/MaxPool_1a_3x3/MaxPool" precision="FP16" type="Pooling">
			<data auto_pad="same_upper" exclude-pad="true" kernel="3,3" pads_begin="1,0" pads_end="1,1" pool-method="max" strides="2,2"/>
			<input>
				<port id="0">
					<dim>1</dim>
					<dim>320</dim>
					<dim>75</dim>
					<dim>128</dim>
				</port>
			</input>
			<output>
				<port id="1">
					<dim>1</dim>
					<dim>320</dim>
					<dim>38</dim>
					<dim>64</dim>
				</port>
			</output>
		</layer>
		<layer id="76" name="FirstStageFeatureExtractor/InceptionV2/InceptionV2/Mixed_4a/concat" precision="FP16" type="Concat">
			<data axis="1"/>
			<input>
				<port id="0">
					<dim>1</dim>
					<dim>160</dim>
					<dim>38</dim>
					<dim>64</dim>
				</port>
				<port id="1">
					<dim>1</dim>
					<dim>96</dim>
					<dim>38</dim>
					<dim>64</dim>
				</port>
				<port id="2">
					<dim>1</dim>
					<dim>320</dim>
					<dim>38</dim>
					<dim>64</dim>
				</port>
			</input>
			<output>
				<port id="3">
					<dim>1</dim>
					<dim>576</dim>
					<dim>38</dim>
					<dim>64</dim>
				</port>
			</output>
		</layer>
		<layer id="77" name="FirstStageFeatureExtractor/InceptionV2/InceptionV2/Mixed_4b/Branch_0/Conv2d_0a_1x1/Conv2D" precision="FP16" type="Convolution">
			<data auto_pad="same_upper" dilations="1,1" group="1" kernel="1,1" output="224" pads_begin="0,0" pads_end="0,0" strides="1,1"/>
			<input>
				<port id="0">
					<dim>1</dim>
					<dim>576</dim>
					<dim>38</dim>
					<dim>64</dim>
				</port>
			</input>
			<output>
				<port id="2">
					<dim>1</dim>
					<dim>224</dim>
					<dim>38</dim>
					<dim>64</dim>
				</port>
			</output>
			<blobs>
				<weights offset="1962288" size="258048"/>
			</blobs>
		</layer>
		<layer id="78" name="ScaleShift/FirstStageFeatureExtractor/InceptionV2/InceptionV2/Mixed_4b/Branch_0/Conv2d_0a_1x1/BatchNorm/FusedBatchNorm/Add" precision="FP16" type="ScaleShift">
			<input>
				<port id="0">
					<dim>1</dim>
					<dim>224</dim>
					<dim>38</dim>
					<dim>64</dim>
				</port>
			</input>
			<output>
				<port id="3">
					<dim>1</dim>
					<dim>224</dim>
					<dim>38</dim>
					<dim>64</dim>
				</port>
			</output>
			<blobs>
				<weights offset="2220336" size="448"/>
				<biases offset="2220784" size="448"/>
			</blobs>
		</layer>
		<layer id="79" name="FirstStageFeatureExtractor/InceptionV2/InceptionV2/Mixed_4b/Branch_0/Conv2d_0a_1x1/Relu" precision="FP16" type="ReLU">
			<input>
				<port id="0">
					<dim>1</dim>
					<dim>224</dim>
					<dim>38</dim>
					<dim>64</dim>
				</port>
			</input>
			<output>
				<port id="1">
					<dim>1</dim>
					<dim>224</dim>
					<dim>38</dim>
					<dim>64</dim>
				</port>
			</output>
		</layer>
		<layer id="80" name="FirstStageFeatureExtractor/InceptionV2/InceptionV2/Mixed_4b/Branch_1/Conv2d_0a_1x1/Conv2D" precision="FP16" type="Convolution">
			<data auto_pad="same_upper" dilations="1,1" group="1" kernel="1,1" output="64" pads_begin="0,0" pads_end="0,0" strides="1,1"/>
			<input>
				<port id="0">
					<dim>1</dim>
					<dim>576</dim>
					<dim>38</dim>
					<dim>64</dim>
				</port>
			</input>
			<output>
				<port id="2">
					<dim>1</dim>
					<dim>64</dim>
					<dim>38</dim>
					<dim>64</dim>
				</port>
			</output>
			<blobs>
				<weights offset="2221232" size="73728"/>
			</blobs>
		</layer>
		<layer id="81" name="ScaleShift/FirstStageFeatureExtractor/InceptionV2/InceptionV2/Mixed_4b/Branch_1/Conv2d_0a_1x1/BatchNorm/FusedBatchNorm/Add" precision="FP16" type="ScaleShift">
			<input>
				<port id="0">
					<dim>1</dim>
					<dim>64</dim>
					<dim>38</dim>
					<dim>64</dim>
				</port>
			</input>
			<output>
				<port id="3">
					<dim>1</dim>
					<dim>64</dim>
					<dim>38</dim>
					<dim>64</dim>
				</port>
			</output>
			<blobs>
				<weights offset="5424" size="128"/>
				<biases offset="2294960" size="128"/>
			</blobs>
		</layer>
		<layer id="82" name="FirstStageFeatureExtractor/InceptionV2/InceptionV2/Mixed_4b/Branch_1/Conv2d_0a_1x1/Relu" precision="FP16" type="ReLU">
			<input>
				<port id="0">
					<dim>1</dim>
					<dim>64</dim>
					<dim>38</dim>
					<dim>64</dim>
				</port>
			</input>
			<output>
				<port id="1">
					<dim>1</dim>
					<dim>64</dim>
					<dim>38</dim>
					<dim>64</dim>
				</port>
			</output>
		</layer>
		<layer id="83" name="FirstStageFeatureExtractor/InceptionV2/InceptionV2/Mixed_4b/Branch_1/Conv2d_0b_3x3/Conv2D" precision="FP16" type="Convolution">
			<data auto_pad="same_upper" dilations="1,1" group="1" kernel="3,3" output="96" pads_begin="1,1" pads_end="1,1" strides="1,1"/>
			<input>
				<port id="0">
					<dim>1</dim>
					<dim>64</dim>
					<dim>38</dim>
					<dim>64</dim>
				</port>
			</input>
			<output>
				<port id="2">
					<dim>1</dim>
					<dim>96</dim>
					<dim>38</dim>
					<dim>64</dim>
				</port>
			</output>
			<blobs>
				<weights offset="2295088" size="110592"/>
			</blobs>
		</layer>
		<layer id="84" name="ScaleShift/FirstStageFeatureExtractor/InceptionV2/InceptionV2/Mixed_4b/Branch_1/Conv2d_0b_3x3/BatchNorm/FusedBatchNorm/Add" precision="FP16" type="ScaleShift">
			<input>
				<port id="0">
					<dim>1</dim>
					<dim>96</dim>
					<dim>38</dim>
					<dim>64</dim>
				</port>
			</input>
			<output>
				<port id="3">
					<dim>1</dim>
					<dim>96</dim>
					<dim>38</dim>
					<dim>64</dim>
				</port>
			</output>
			<blobs>
				<weights offset="494512" size="192"/>
				<biases offset="2405680" size="192"/>
			</blobs>
		</layer>
		<layer id="85" name="FirstStageFeatureExtractor/InceptionV2/InceptionV2/Mixed_4b/Branch_1/Conv2d_0b_3x3/Relu" precision="FP16" type="ReLU">
			<input>
				<port id="0">
					<dim>1</dim>
					<dim>96</dim>
					<dim>38</dim>
					<dim>64</dim>
				</port>
			</input>
			<output>
				<port id="1">
					<dim>1</dim>
					<dim>96</dim>
					<dim>38</dim>
					<dim>64</dim>
				</port>
			</output>
		</layer>
		<layer id="86" name="FirstStageFeatureExtractor/InceptionV2/InceptionV2/Mixed_4b/Branch_2/Conv2d_0a_1x1/Conv2D" precision="FP16" type="Convolution">
			<data auto_pad="same_upper" dilations="1,1" group="1" kernel="1,1" output="96" pads_begin="0,0" pads_end="0,0" strides="1,1"/>
			<input>
				<port id="0">
					<dim>1</dim>
					<dim>576</dim>
					<dim>38</dim>
					<dim>64</dim>
				</port>
			</input>
			<output>
				<port id="2">
					<dim>1</dim>
					<dim>96</dim>
					<dim>38</dim>
					<dim>64</dim>
				</port>
			</output>
			<blobs>
				<weights offset="2405872" size="110592"/>
			</blobs>
		</layer>
		<layer id="87" name="ScaleShift/FirstStageFeatureExtractor/InceptionV2/InceptionV2/Mixed_4b/Branch_2/Conv2d_0a_1x1/BatchNorm/FusedBatchNorm/Add" precision="FP16" type="ScaleShift">
			<input>
				<port id="0">
					<dim>1</dim>
					<dim>96</dim>
					<dim>38</dim>
					<dim>64</dim>
				</port>
			</input>
			<output>
				<port id="3">
					<dim>1</dim>
					<dim>96</dim>
					<dim>38</dim>
					<dim>64</dim>
				</port>
			</output>
			<blobs>
				<weights offset="494512" size="192"/>
				<biases offset="2516464" size="192"/>
			</blobs>
		</layer>
		<layer id="88" name="FirstStageFeatureExtractor/InceptionV2/InceptionV2/Mixed_4b/Branch_2/Conv2d_0a_1x1/Relu" precision="FP16" type="ReLU">
			<input>
				<port id="0">
					<dim>1</dim>
					<dim>96</dim>
					<dim>38</dim>
					<dim>64</dim>
				</port>
			</input>
			<output>
				<port id="1">
					<dim>1</dim>
					<dim>96</dim>
					<dim>38</dim>
					<dim>64</dim>
				</port>
			</output>
		</layer>
		<layer id="89" name="FirstStageFeatureExtractor/InceptionV2/InceptionV2/Mixed_4b/Branch_2/Conv2d_0b_3x3/Conv2D" precision="FP16" type="Convolution">
			<data auto_pad="same_upper" dilations="1,1" group="1" kernel="3,3" output="128" pads_begin="1,1" pads_end="1,1" strides="1,1"/>
			<input>
				<port id="0">
					<dim>1</dim>
					<dim>96</dim>
					<dim>38</dim>
					<dim>64</dim>
				</port>
			</input>
			<output>
				<port id="2">
					<dim>1</dim>
					<dim>128</dim>
					<dim>38</dim>
					<dim>64</dim>
				</port>
			</output>
			<blobs>
				<weights offset="2516656" size="221184"/>
			</blobs>
		</layer>
		<layer id="90" name="ScaleShift/FirstStageFeatureExtractor/InceptionV2/InceptionV2/Mixed_4b/Branch_2/Conv2d_0b_3x3/BatchNorm/FusedBatchNorm/Add" precision="FP16" type="ScaleShift">
			<input>
				<port id="0">
					<dim>1</dim>
					<dim>128</dim>
					<dim>38</dim>
					<dim>64</dim>
				</port>
			</input>
			<output>
				<port id="3">
					<dim>1</dim>
					<dim>128</dim>
					<dim>38</dim>
					<dim>64</dim>
				</port>
			</output>
			<blobs>
				<weights offset="1274544" size="256"/>
				<biases offset="2737840" size="256"/>
			</blobs>
		</layer>
		<layer id="91" name="FirstStageFeatureExtractor/InceptionV2/InceptionV2/Mixed_4b/Branch_2/Conv2d_0b_3x3/Relu" precision="FP16" type="ReLU">
			<input>
				<port id="0">
					<dim>1</dim>
					<dim>128</dim>
					<dim>38</dim>
					<dim>64</dim>
				</port>
			</input>
			<output>
				<port id="1">
					<dim>1</dim>
					<dim>128</dim>
					<dim>38</dim>
					<dim>64</dim>
				</port>
			</output>
		</layer>
		<layer id="92" name="FirstStageFeatureExtractor/InceptionV2/InceptionV2/Mixed_4b/Branch_2/Conv2d_0c_3x3/Conv2D" precision="FP16" type="Convolution">
			<data auto_pad="same_upper" dilations="1,1" group="1" kernel="3,3" output="128" pads_begin="1,1" pads_end="1,1" strides="1,1"/>
			<input>
				<port id="0">
					<dim>1</dim>
					<dim>128</dim>
					<dim>38</dim>
					<dim>64</dim>
				</port>
			</input>
			<output>
				<port id="2">
					<dim>1</dim>
					<dim>128</dim>
					<dim>38</dim>
					<dim>64</dim>
				</port>
			</output>
			<blobs>
				<weights offset="2738096" size="294912"/>
			</blobs>
		</layer>
		<layer id="93" name="ScaleShift/FirstStageFeatureExtractor/InceptionV2/InceptionV2/Mixed_4b/Branch_2/Conv2d_0c_3x3/BatchNorm/FusedBatchNorm/Add" precision="FP16" type="ScaleShift">
			<input>
				<port id="0">
					<dim>1</dim>
					<dim>128</dim>
					<dim>38</dim>
					<dim>64</dim>
				</port>
			</input>
			<output>
				<port id="3">
					<dim>1</dim>
					<dim>128</dim>
					<dim>38</dim>
					<dim>64</dim>
				</port>
			</output>
			<blobs>
				<weights offset="1274544" size="256"/>
				<biases offset="3033008" size="256"/>
			</blobs>
		</layer>
		<layer id="94" name="FirstStageFeatureExtractor/InceptionV2/InceptionV2/Mixed_4b/Branch_2/Conv2d_0c_3x3/Relu" precision="FP16" type="ReLU">
			<input>
				<port id="0">
					<dim>1</dim>
					<dim>128</dim>
					<dim>38</dim>
					<dim>64</dim>
				</port>
			</input>
			<output>
				<port id="1">
					<dim>1</dim>
					<dim>128</dim>
					<dim>38</dim>
					<dim>64</dim>
				</port>
			</output>
		</layer>
		<layer id="95" name="FirstStageFeatureExtractor/InceptionV2/InceptionV2/Mixed_4b/Branch_3/AvgPool_0a_3x3/AvgPool" precision="FP16" type="Pooling">
			<data auto_pad="same_upper" exclude-pad="true" kernel="3,3" pads_begin="1,1" pads_end="1,1" pool-method="avg" strides="1,1"/>
			<input>
				<port id="0">
					<dim>1</dim>
					<dim>576</dim>
					<dim>38</dim>
					<dim>64</dim>
				</port>
			</input>
			<output>
				<port id="1">
					<dim>1</dim>
					<dim>576</dim>
					<dim>38</dim>
					<dim>64</dim>
				</port>
			</output>
		</layer>
		<layer id="96" name="FirstStageFeatureExtractor/InceptionV2/InceptionV2/Mixed_4b/Branch_3/Conv2d_0b_1x1/Conv2D" precision="FP16" type="Convolution">
			<data auto_pad="same_upper" dilations="1,1" group="1" kernel="1,1" output="128" pads_begin="0,0" pads_end="0,0" strides="1,1"/>
			<input>
				<port id="0">
					<dim>1</dim>
					<dim>576</dim>
					<dim>38</dim>
					<dim>64</dim>
				</port>
			</input>
			<output>
				<port id="2">
					<dim>1</dim>
					<dim>128</dim>
					<dim>38</dim>
					<dim>64</dim>
				</port>
			</output>
			<blobs>
				<weights offset="3033264" size="147456"/>
			</blobs>
		</layer>
		<layer id="97" name="ScaleShift/FirstStageFeatureExtractor/InceptionV2/InceptionV2/Mixed_4b/Branch_3/Conv2d_0b_1x1/BatchNorm/FusedBatchNorm/Add" precision="FP16" type="ScaleShift">
			<input>
				<port id="0">
					<dim>1</dim>
					<dim>128</dim>
					<dim>38</dim>
					<dim>64</dim>
				</port>
			</input>
			<output>
				<port id="3">
					<dim>1</dim>
					<dim>128</dim>
					<dim>38</dim>
					<dim>64</dim>
				</port>
			</output>
			<blobs>
				<weights offset="1274544" size="256"/>
				<biases offset="3180720" size="256"/>
			</blobs>
		</layer>
		<layer id="98" name="FirstStageFeatureExtractor/InceptionV2/InceptionV2/Mixed_4b/Branch_3/Conv2d_0b_1x1/Relu" precision="FP16" type="ReLU">
			<input>
				<port id="0">
					<dim>1</dim>
					<dim>128</dim>
					<dim>38</dim>
					<dim>64</dim>
				</port>
			</input>
			<output>
				<port id="1">
					<dim>1</dim>
					<dim>128</dim>
					<dim>38</dim>
					<dim>64</dim>
				</port>
			</output>
		</layer>
		<layer id="99" name="FirstStageFeatureExtractor/InceptionV2/InceptionV2/Mixed_4b/concat" precision="FP16" type="Concat">
			<data axis="1"/>
			<input>
				<port id="0">
					<dim>1</dim>
					<dim>224</dim>
					<dim>38</dim>
					<dim>64</dim>
				</port>
				<port id="1">
					<dim>1</dim>
					<dim>96</dim>
					<dim>38</dim>
					<dim>64</dim>
				</port>
				<port id="2">
					<dim>1</dim>
					<dim>128</dim>
					<dim>38</dim>
					<dim>64</dim>
				</port>
				<port id="3">
					<dim>1</dim>
					<dim>128</dim>
					<dim>38</dim>
					<dim>64</dim>
				</port>
			</input>
			<output>
				<port id="4">
					<dim>1</dim>
					<dim>576</dim>
					<dim>38</dim>
					<dim>64</dim>
				</port>
			</output>
		</layer>
		<layer id="100" name="FirstStageFeatureExtractor/InceptionV2/InceptionV2/Mixed_4c/Branch_0/Conv2d_0a_1x1/Conv2D" precision="FP16" type="Convolution">
			<data auto_pad="same_upper" dilations="1,1" group="1" kernel="1,1" output="192" pads_begin="0,0" pads_end="0,0" strides="1,1"/>
			<input>
				<port id="0">
					<dim>1</dim>
					<dim>576</dim>
					<dim>38</dim>
					<dim>64</dim>
				</port>
			</input>
			<output>
				<port id="2">
					<dim>1</dim>
					<dim>192</dim>
					<dim>38</dim>
					<dim>64</dim>
				</port>
			</output>
			<blobs>
				<weights offset="3180976" size="221184"/>
			</blobs>
		</layer>
		<layer id="101" name="ScaleShift/FirstStageFeatureExtractor/InceptionV2/InceptionV2/Mixed_4c/Branch_0/Conv2d_0a_1x1/BatchNorm/FusedBatchNorm/Add" precision="FP16" type="ScaleShift">
			<input>
				<port id="0">
					<dim>1</dim>
					<dim>192</dim>
					<dim>38</dim>
					<dim>64</dim>
				</port>
			</input>
			<output>
				<port id="3">
					<dim>1</dim>
					<dim>192</dim>
					<dim>38</dim>
					<dim>64</dim>
				</port>
			</output>
			<blobs>
				<weights offset="235184" size="384"/>
				<biases offset="3402160" size="384"/>
			</blobs>
		</layer>
		<layer id="102" name="FirstStageFeatureExtractor/InceptionV2/InceptionV2/Mixed_4c/Branch_0/Conv2d_0a_1x1/Relu" precision="FP16" type="ReLU">
			<input>
				<port id="0">
					<dim>1</dim>
					<dim>192</dim>
					<dim>38</dim>
					<dim>64</dim>
				</port>
			</input>
			<output>
				<port id="1">
					<dim>1</dim>
					<dim>192</dim>
					<dim>38</dim>
					<dim>64</dim>
				</port>
			</output>
		</layer>
		<layer id="103" name="FirstStageFeatureExtractor/InceptionV2/InceptionV2/Mixed_4c/Branch_1/Conv2d_0a_1x1/Conv2D" precision="FP16" type="Convolution">
			<data auto_pad="same_upper" dilations="1,1" group="1" kernel="1,1" output="96" pads_begin="0,0" pads_end="0,0" strides="1,1"/>
			<input>
				<port id="0">
					<dim>1</dim>
					<dim>576</dim>
					<dim>38</dim>
					<dim>64</dim>
				</port>
			</input>
			<output>
				<port id="2">
					<dim>1</dim>
					<dim>96</dim>
					<dim>38</dim>
					<dim>64</dim>
				</port>
			</output>
			<blobs>
				<weights offset="3402544" size="110592"/>
			</blobs>
		</layer>
		<layer id="104" name="ScaleShift/FirstStageFeatureExtractor/InceptionV2/InceptionV2/Mixed_4c/Branch_1/Conv2d_0a_1x1/BatchNorm/FusedBatchNorm/Add" precision="FP16" type="ScaleShift">
			<input>
				<port id="0">
					<dim>1</dim>
					<dim>96</dim>
					<dim>38</dim>
					<dim>64</dim>
				</port>
			</input>
			<output>
				<port id="3">
					<dim>1</dim>
					<dim>96</dim>
					<dim>38</dim>
					<dim>64</dim>
				</port>
			</output>
			<blobs>
				<weights offset="494512" size="192"/>
				<biases offset="3513136" size="192"/>
			</blobs>
		</layer>
		<layer id="105" name="FirstStageFeatureExtractor/InceptionV2/InceptionV2/Mixed_4c/Branch_1/Conv2d_0a_1x1/Relu" precision="FP16" type="ReLU">
			<input>
				<port id="0">
					<dim>1</dim>
					<dim>96</dim>
					<dim>38</dim>
					<dim>64</dim>
				</port>
			</input>
			<output>
				<port id="1">
					<dim>1</dim>
					<dim>96</dim>
					<dim>38</dim>
					<dim>64</dim>
				</port>
			</output>
		</layer>
		<layer id="106" name="FirstStageFeatureExtractor/InceptionV2/InceptionV2/Mixed_4c/Branch_1/Conv2d_0b_3x3/Conv2D" precision="FP16" type="Convolution">
			<data auto_pad="same_upper" dilations="1,1" group="1" kernel="3,3" output="128" pads_begin="1,1" pads_end="1,1" strides="1,1"/>
			<input>
				<port id="0">
					<dim>1</dim>
					<dim>96</dim>
					<dim>38</dim>
					<dim>64</dim>
				</port>
			</input>
			<output>
				<port id="2">
					<dim>1</dim>
					<dim>128</dim>
					<dim>38</dim>
					<dim>64</dim>
				</port>
			</output>
			<blobs>
				<weights offset="3513328" size="221184"/>
			</blobs>
		</layer>
		<layer id="107" name="ScaleShift/FirstStageFeatureExtractor/InceptionV2/InceptionV2/Mixed_4c/Branch_1/Conv2d_0b_3x3/BatchNorm/FusedBatchNorm/Add" precision="FP16" type="ScaleShift">
			<input>
				<port id="0">
					<dim>1</dim>
					<dim>128</dim>
					<dim>38</dim>
					<dim>64</dim>
				</port>
			</input>
			<output>
				<port id="3">
					<dim>1</dim>
					<dim>128</dim>
					<dim>38</dim>
					<dim>64</dim>
				</port>
			</output>
			<blobs>
				<weights offset="1274544" size="256"/>
				<biases offset="3734512" size="256"/>
			</blobs>
		</layer>
		<layer id="108" name="FirstStageFeatureExtractor/InceptionV2/InceptionV2/Mixed_4c/Branch_1/Conv2d_0b_3x3/Relu" precision="FP16" type="ReLU">
			<input>
				<port id="0">
					<dim>1</dim>
					<dim>128</dim>
					<dim>38</dim>
					<dim>64</dim>
				</port>
			</input>
			<output>
				<port id="1">
					<dim>1</dim>
					<dim>128</dim>
					<dim>38</dim>
					<dim>64</dim>
				</port>
			</output>
		</layer>
		<layer id="109" name="FirstStageFeatureExtractor/InceptionV2/InceptionV2/Mixed_4c/Branch_2/Conv2d_0a_1x1/Conv2D" precision="FP16" type="Convolution">
			<data auto_pad="same_upper" dilations="1,1" group="1" kernel="1,1" output="96" pads_begin="0,0" pads_end="0,0" strides="1,1"/>
			<input>
				<port id="0">
					<dim>1</dim>
					<dim>576</dim>
					<dim>38</dim>
					<dim>64</dim>
				</port>
			</input>
			<output>
				<port id="2">
					<dim>1</dim>
					<dim>96</dim>
					<dim>38</dim>
					<dim>64</dim>
				</port>
			</output>
			<blobs>
				<weights offset="3734768" size="110592"/>
			</blobs>
		</layer>
		<layer id="110" name="ScaleShift/FirstStageFeatureExtractor/InceptionV2/InceptionV2/Mixed_4c/Branch_2/Conv2d_0a_1x1/BatchNorm/FusedBatchNorm/Add" precision="FP16" type="ScaleShift">
			<input>
				<port id="0">
					<dim>1</dim>
					<dim>96</dim>
					<dim>38</dim>
					<dim>64</dim>
				</port>
			</input>
			<output>
				<port id="3">
					<dim>1</dim>
					<dim>96</dim>
					<dim>38</dim>
					<dim>64</dim>
				</port>
			</output>
			<blobs>
				<weights offset="494512" size="192"/>
				<biases offset="3845360" size="192"/>
			</blobs>
		</layer>
		<layer id="111" name="FirstStageFeatureExtractor/InceptionV2/InceptionV2/Mixed_4c/Branch_2/Conv2d_0a_1x1/Relu" precision="FP16" type="ReLU">
			<input>
				<port id="0">
					<dim>1</dim>
					<dim>96</dim>
					<dim>38</dim>
					<dim>64</dim>
				</port>
			</input>
			<output>
				<port id="1">
					<dim>1</dim>
					<dim>96</dim>
					<dim>38</dim>
					<dim>64</dim>
				</port>
			</output>
		</layer>
		<layer id="112" name="FirstStageFeatureExtractor/InceptionV2/InceptionV2/Mixed_4c/Branch_2/Conv2d_0b_3x3/Conv2D" precision="FP16" type="Convolution">
			<data auto_pad="same_upper" dilations="1,1" group="1" kernel="3,3" output="128" pads_begin="1,1" pads_end="1,1" strides="1,1"/>
			<input>
				<port id="0">
					<dim>1</dim>
					<dim>96</dim>
					<dim>38</dim>
					<dim>64</dim>
				</port>
			</input>
			<output>
				<port id="2">
					<dim>1</dim>
					<dim>128</dim>
					<dim>38</dim>
					<dim>64</dim>
				</port>
			</output>
			<blobs>
				<weights offset="3845552" size="221184"/>
			</blobs>
		</layer>
		<layer id="113" name="ScaleShift/FirstStageFeatureExtractor/InceptionV2/InceptionV2/Mixed_4c/Branch_2/Conv2d_0b_3x3/BatchNorm/FusedBatchNorm/Add" precision="FP16" type="ScaleShift">
			<input>
				<port id="0">
					<dim>1</dim>
					<dim>128</dim>
					<dim>38</dim>
					<dim>64</dim>
				</port>
			</input>
			<output>
				<port id="3">
					<dim>1</dim>
					<dim>128</dim>
					<dim>38</dim>
					<dim>64</dim>
				</port>
			</output>
			<blobs>
				<weights offset="1274544" size="256"/>
				<biases offset="4066736" size="256"/>
			</blobs>
		</layer>
		<layer id="114" name="FirstStageFeatureExtractor/InceptionV2/InceptionV2/Mixed_4c/Branch_2/Conv2d_0b_3x3/Relu" precision="FP16" type="ReLU">
			<input>
				<port id="0">
					<dim>1</dim>
					<dim>128</dim>
					<dim>38</dim>
					<dim>64</dim>
				</port>
			</input>
			<output>
				<port id="1">
					<dim>1</dim>
					<dim>128</dim>
					<dim>38</dim>
					<dim>64</dim>
				</port>
			</output>
		</layer>
		<layer id="115" name="FirstStageFeatureExtractor/InceptionV2/InceptionV2/Mixed_4c/Branch_2/Conv2d_0c_3x3/Conv2D" precision="FP16" type="Convolution">
			<data auto_pad="same_upper" dilations="1,1" group="1" kernel="3,3" output="128" pads_begin="1,1" pads_end="1,1" strides="1,1"/>
			<input>
				<port id="0">
					<dim>1</dim>
					<dim>128</dim>
					<dim>38</dim>
					<dim>64</dim>
				</port>
			</input>
			<output>
				<port id="2">
					<dim>1</dim>
					<dim>128</dim>
					<dim>38</dim>
					<dim>64</dim>
				</port>
			</output>
			<blobs>
				<weights offset="4066992" size="294912"/>
			</blobs>
		</layer>
		<layer id="116" name="ScaleShift/FirstStageFeatureExtractor/InceptionV2/InceptionV2/Mixed_4c/Branch_2/Conv2d_0c_3x3/BatchNorm/FusedBatchNorm/Add" precision="FP16" type="ScaleShift">
			<input>
				<port id="0">
					<dim>1</dim>
					<dim>128</dim>
					<dim>38</dim>
					<dim>64</dim>
				</port>
			</input>
			<output>
				<port id="3">
					<dim>1</dim>
					<dim>128</dim>
					<dim>38</dim>
					<dim>64</dim>
				</port>
			</output>
			<blobs>
				<weights offset="1274544" size="256"/>
				<biases offset="4361904" size="256"/>
			</blobs>
		</layer>
		<layer id="117" name="FirstStageFeatureExtractor/InceptionV2/InceptionV2/Mixed_4c/Branch_2/Conv2d_0c_3x3/Relu" precision="FP16" type="ReLU">
			<input>
				<port id="0">
					<dim>1</dim>
					<dim>128</dim>
					<dim>38</dim>
					<dim>64</dim>
				</port>
			</input>
			<output>
				<port id="1">
					<dim>1</dim>
					<dim>128</dim>
					<dim>38</dim>
					<dim>64</dim>
				</port>
			</output>
		</layer>
		<layer id="118" name="FirstStageFeatureExtractor/InceptionV2/InceptionV2/Mixed_4c/Branch_3/AvgPool_0a_3x3/AvgPool" precision="FP16" type="Pooling">
			<data auto_pad="same_upper" exclude-pad="true" kernel="3,3" pads_begin="1,1" pads_end="1,1" pool-method="avg" strides="1,1"/>
			<input>
				<port id="0">
					<dim>1</dim>
					<dim>576</dim>
					<dim>38</dim>
					<dim>64</dim>
				</port>
			</input>
			<output>
				<port id="1">
					<dim>1</dim>
					<dim>576</dim>
					<dim>38</dim>
					<dim>64</dim>
				</port>
			</output>
		</layer>
		<layer id="119" name="FirstStageFeatureExtractor/InceptionV2/InceptionV2/Mixed_4c/Branch_3/Conv2d_0b_1x1/Conv2D" precision="FP16" type="Convolution">
			<data auto_pad="same_upper" dilations="1,1" group="1" kernel="1,1" output="128" pads_begin="0,0" pads_end="0,0" strides="1,1"/>
			<input>
				<port id="0">
					<dim>1</dim>
					<dim>576</dim>
					<dim>38</dim>
					<dim>64</dim>
				</port>
			</input>
			<output>
				<port id="2">
					<dim>1</dim>
					<dim>128</dim>
					<dim>38</dim>
					<dim>64</dim>
				</port>
			</output>
			<blobs>
				<weights offset="4362160" size="147456"/>
			</blobs>
		</layer>
		<layer id="120" name="ScaleShift/FirstStageFeatureExtractor/InceptionV2/InceptionV2/Mixed_4c/Branch_3/Conv2d_0b_1x1/BatchNorm/FusedBatchNorm/Add" precision="FP16" type="ScaleShift">
			<input>
				<port id="0">
					<dim>1</dim>
					<dim>128</dim>
					<dim>38</dim>
					<dim>64</dim>
				</port>
			</input>
			<output>
				<port id="3">
					<dim>1</dim>
					<dim>128</dim>
					<dim>38</dim>
					<dim>64</dim>
				</port>
			</output>
			<blobs>
				<weights offset="1274544" size="256"/>
				<biases offset="4509616" size="256"/>
			</blobs>
		</layer>
		<layer id="121" name="FirstStageFeatureExtractor/InceptionV2/InceptionV2/Mixed_4c/Branch_3/Conv2d_0b_1x1/Relu" precision="FP16" type="ReLU">
			<input>
				<port id="0">
					<dim>1</dim>
					<dim>128</dim>
					<dim>38</dim>
					<dim>64</dim>
				</port>
			</input>
			<output>
				<port id="1">
					<dim>1</dim>
					<dim>128</dim>
					<dim>38</dim>
					<dim>64</dim>
				</port>
			</output>
		</layer>
		<layer id="122" name="FirstStageFeatureExtractor/InceptionV2/InceptionV2/Mixed_4c/concat" precision="FP16" type="Concat">
			<data axis="1"/>
			<input>
				<port id="0">
					<dim>1</dim>
					<dim>192</dim>
					<dim>38</dim>
					<dim>64</dim>
				</port>
				<port id="1">
					<dim>1</dim>
					<dim>128</dim>
					<dim>38</dim>
					<dim>64</dim>
				</port>
				<port id="2">
					<dim>1</dim>
					<dim>128</dim>
					<dim>38</dim>
					<dim>64</dim>
				</port>
				<port id="3">
					<dim>1</dim>
					<dim>128</dim>
					<dim>38</dim>
					<dim>64</dim>
				</port>
			</input>
			<output>
				<port id="4">
					<dim>1</dim>
					<dim>576</dim>
					<dim>38</dim>
					<dim>64</dim>
				</port>
			</output>
		</layer>
		<layer id="123" name="FirstStageFeatureExtractor/InceptionV2/InceptionV2/Mixed_4d/Branch_0/Conv2d_0a_1x1/Conv2D" precision="FP16" type="Convolution">
			<data auto_pad="same_upper" dilations="1,1" group="1" kernel="1,1" output="160" pads_begin="0,0" pads_end="0,0" strides="1,1"/>
			<input>
				<port id="0">
					<dim>1</dim>
					<dim>576</dim>
					<dim>38</dim>
					<dim>64</dim>
				</port>
			</input>
			<output>
				<port id="2">
					<dim>1</dim>
					<dim>160</dim>
					<dim>38</dim>
					<dim>64</dim>
				</port>
			</output>
			<blobs>
				<weights offset="4509872" size="184320"/>
			</blobs>
		</layer>
		<layer id="124" name="ScaleShift/FirstStageFeatureExtractor/InceptionV2/InceptionV2/Mixed_4d/Branch_0/Conv2d_0a_1x1/BatchNorm/FusedBatchNorm/Add" precision="FP16" type="ScaleShift">
			<input>
				<port id="0">
					<dim>1</dim>
					<dim>160</dim>
					<dim>38</dim>
					<dim>64</dim>
				</port>
			</input>
			<output>
				<port id="3">
					<dim>1</dim>
					<dim>160</dim>
					<dim>38</dim>
					<dim>64</dim>
				</port>
			</output>
			<blobs>
				<weights offset="1643696" size="320"/>
				<biases offset="4694192" size="320"/>
			</blobs>
		</layer>
		<layer id="125" name="FirstStageFeatureExtractor/InceptionV2/InceptionV2/Mixed_4d/Branch_0/Conv2d_0a_1x1/Relu" precision="FP16" type="ReLU">
			<input>
				<port id="0">
					<dim>1</dim>
					<dim>160</dim>
					<dim>38</dim>
					<dim>64</dim>
				</port>
			</input>
			<output>
				<port id="1">
					<dim>1</dim>
					<dim>160</dim>
					<dim>38</dim>
					<dim>64</dim>
				</port>
			</output>
		</layer>
		<layer id="126" name="FirstStageFeatureExtractor/InceptionV2/InceptionV2/Mixed_4d/Branch_1/Conv2d_0a_1x1/Conv2D" precision="FP16" type="Convolution">
			<data auto_pad="same_upper" dilations="1,1" group="1" kernel="1,1" output="128" pads_begin="0,0" pads_end="0,0" strides="1,1"/>
			<input>
				<port id="0">
					<dim>1</dim>
					<dim>576</dim>
					<dim>38</dim>
					<dim>64</dim>
				</port>
			</input>
			<output>
				<port id="2">
					<dim>1</dim>
					<dim>128</dim>
					<dim>38</dim>
					<dim>64</dim>
				</port>
			</output>
			<blobs>
				<weights offset="4694512" size="147456"/>
			</blobs>
		</layer>
		<layer id="127" name="ScaleShift/FirstStageFeatureExtractor/InceptionV2/InceptionV2/Mixed_4d/Branch_1/Conv2d_0a_1x1/BatchNorm/FusedBatchNorm/Add" precision="FP16" type="ScaleShift">
			<input>
				<port id="0">
					<dim>1</dim>
					<dim>128</dim>
					<dim>38</dim>
					<dim>64</dim>
				</port>
			</input>
			<output>
				<port id="3">
					<dim>1</dim>
					<dim>128</dim>
					<dim>38</dim>
					<dim>64</dim>
				</port>
			</output>
			<blobs>
				<weights offset="1274544" size="256"/>
				<biases offset="4841968" size="256"/>
			</blobs>
		</layer>
		<layer id="128" name="FirstStageFeatureExtractor/InceptionV2/InceptionV2/Mixed_4d/Branch_1/Conv2d_0a_1x1/Relu" precision="FP16" type="ReLU">
			<input>
				<port id="0">
					<dim>1</dim>
					<dim>128</dim>
					<dim>38</dim>
					<dim>64</dim>
				</port>
			</input>
			<output>
				<port id="1">
					<dim>1</dim>
					<dim>128</dim>
					<dim>38</dim>
					<dim>64</dim>
				</port>
			</output>
		</layer>
		<layer id="129" name="FirstStageFeatureExtractor/InceptionV2/InceptionV2/Mixed_4d/Branch_1/Conv2d_0b_3x3/Conv2D" precision="FP16" type="Convolution">
			<data auto_pad="same_upper" dilations="1,1" group="1" kernel="3,3" output="160" pads_begin="1,1" pads_end="1,1" strides="1,1"/>
			<input>
				<port id="0">
					<dim>1</dim>
					<dim>128</dim>
					<dim>38</dim>
					<dim>64</dim>
				</port>
			</input>
			<output>
				<port id="2">
					<dim>1</dim>
					<dim>160</dim>
					<dim>38</dim>
					<dim>64</dim>
				</port>
			</output>
			<blobs>
				<weights offset="4842224" size="368640"/>
			</blobs>
		</layer>
		<layer id="130" name="ScaleShift/FirstStageFeatureExtractor/InceptionV2/InceptionV2/Mixed_4d/Branch_1/Conv2d_0b_3x3/BatchNorm/FusedBatchNorm/Add" precision="FP16" type="ScaleShift">
			<input>
				<port id="0">
					<dim>1</dim>
					<dim>160</dim>
					<dim>38</dim>
					<dim>64</dim>
				</port>
			</input>
			<output>
				<port id="3">
					<dim>1</dim>
					<dim>160</dim>
					<dim>38</dim>
					<dim>64</dim>
				</port>
			</output>
			<blobs>
				<weights offset="1643696" size="320"/>
				<biases offset="5210864" size="320"/>
			</blobs>
		</layer>
		<layer id="131" name="FirstStageFeatureExtractor/InceptionV2/InceptionV2/Mixed_4d/Branch_1/Conv2d_0b_3x3/Relu" precision="FP16" type="ReLU">
			<input>
				<port id="0">
					<dim>1</dim>
					<dim>160</dim>
					<dim>38</dim>
					<dim>64</dim>
				</port>
			</input>
			<output>
				<port id="1">
					<dim>1</dim>
					<dim>160</dim>
					<dim>38</dim>
					<dim>64</dim>
				</port>
			</output>
		</layer>
		<layer id="132" name="FirstStageFeatureExtractor/InceptionV2/InceptionV2/Mixed_4d/Branch_2/Conv2d_0a_1x1/Conv2D" precision="FP16" type="Convolution">
			<data auto_pad="same_upper" dilations="1,1" group="1" kernel="1,1" output="128" pads_begin="0,0" pads_end="0,0" strides="1,1"/>
			<input>
				<port id="0">
					<dim>1</dim>
					<dim>576</dim>
					<dim>38</dim>
					<dim>64</dim>
				</port>
			</input>
			<output>
				<port id="2">
					<dim>1</dim>
					<dim>128</dim>
					<dim>38</dim>
					<dim>64</dim>
				</port>
			</output>
			<blobs>
				<weights offset="5211184" size="147456"/>
			</blobs>
		</layer>
		<layer id="133" name="ScaleShift/FirstStageFeatureExtractor/InceptionV2/InceptionV2/Mixed_4d/Branch_2/Conv2d_0a_1x1/BatchNorm/FusedBatchNorm/Add" precision="FP16" type="ScaleShift">
			<input>
				<port id="0">
					<dim>1</dim>
					<dim>128</dim>
					<dim>38</dim>
					<dim>64</dim>
				</port>
			</input>
			<output>
				<port id="3">
					<dim>1</dim>
					<dim>128</dim>
					<dim>38</dim>
					<dim>64</dim>
				</port>
			</output>
			<blobs>
				<weights offset="1274544" size="256"/>
				<biases offset="5358640" size="256"/>
			</blobs>
		</layer>
		<layer id="134" name="FirstStageFeatureExtractor/InceptionV2/InceptionV2/Mixed_4d/Branch_2/Conv2d_0a_1x1/Relu" precision="FP16" type="ReLU">
			<input>
				<port id="0">
					<dim>1</dim>
					<dim>128</dim>
					<dim>38</dim>
					<dim>64</dim>
				</port>
			</input>
			<output>
				<port id="1">
					<dim>1</dim>
					<dim>128</dim>
					<dim>38</dim>
					<dim>64</dim>
				</port>
			</output>
		</layer>
		<layer id="135" name="FirstStageFeatureExtractor/InceptionV2/InceptionV2/Mixed_4d/Branch_2/Conv2d_0b_3x3/Conv2D" precision="FP16" type="Convolution">
			<data auto_pad="same_upper" dilations="1,1" group="1" kernel="3,3" output="160" pads_begin="1,1" pads_end="1,1" strides="1,1"/>
			<input>
				<port id="0">
					<dim>1</dim>
					<dim>128</dim>
					<dim>38</dim>
					<dim>64</dim>
				</port>
			</input>
			<output>
				<port id="2">
					<dim>1</dim>
					<dim>160</dim>
					<dim>38</dim>
					<dim>64</dim>
				</port>
			</output>
			<blobs>
				<weights offset="5358896" size="368640"/>
			</blobs>
		</layer>
		<layer id="136" name="ScaleShift/FirstStageFeatureExtractor/InceptionV2/InceptionV2/Mixed_4d/Branch_2/Conv2d_0b_3x3/BatchNorm/FusedBatchNorm/Add" precision="FP16" type="ScaleShift">
			<input>
				<port id="0">
					<dim>1</dim>
					<dim>160</dim>
					<dim>38</dim>
					<dim>64</dim>
				</port>
			</input>
			<output>
				<port id="3">
					<dim>1</dim>
					<dim>160</dim>
					<dim>38</dim>
					<dim>64</dim>
				</port>
			</output>
			<blobs>
				<weights offset="1643696" size="320"/>
				<biases offset="5727536" size="320"/>
			</blobs>
		</layer>
		<layer id="137" name="FirstStageFeatureExtractor/InceptionV2/InceptionV2/Mixed_4d/Branch_2/Conv2d_0b_3x3/Relu" precision="FP16" type="ReLU">
			<input>
				<port id="0">
					<dim>1</dim>
					<dim>160</dim>
					<dim>38</dim>
					<dim>64</dim>
				</port>
			</input>
			<output>
				<port id="1">
					<dim>1</dim>
					<dim>160</dim>
					<dim>38</dim>
					<dim>64</dim>
				</port>
			</output>
		</layer>
		<layer id="138" name="FirstStageFeatureExtractor/InceptionV2/InceptionV2/Mixed_4d/Branch_2/Conv2d_0c_3x3/Conv2D" precision="FP16" type="Convolution">
			<data auto_pad="same_upper" dilations="1,1" group="1" kernel="3,3" output="160" pads_begin="1,1" pads_end="1,1" strides="1,1"/>
			<input>
				<port id="0">
					<dim>1</dim>
					<dim>160</dim>
					<dim>38</dim>
					<dim>64</dim>
				</port>
			</input>
			<output>
				<port id="2">
					<dim>1</dim>
					<dim>160</dim>
					<dim>38</dim>
					<dim>64</dim>
				</port>
			</output>
			<blobs>
				<weights offset="5727856" size="460800"/>
			</blobs>
		</layer>
		<layer id="139" name="ScaleShift/FirstStageFeatureExtractor/InceptionV2/InceptionV2/Mixed_4d/Branch_2/Conv2d_0c_3x3/BatchNorm/FusedBatchNorm/Add" precision="FP16" type="ScaleShift">
			<input>
				<port id="0">
					<dim>1</dim>
					<dim>160</dim>
					<dim>38</dim>
					<dim>64</dim>
				</port>
			</input>
			<output>
				<port id="3">
					<dim>1</dim>
					<dim>160</dim>
					<dim>38</dim>
					<dim>64</dim>
				</port>
			</output>
			<blobs>
				<weights offset="1643696" size="320"/>
				<biases offset="6188656" size="320"/>
			</blobs>
		</layer>
		<layer id="140" name="FirstStageFeatureExtractor/InceptionV2/InceptionV2/Mixed_4d/Branch_2/Conv2d_0c_3x3/Relu" precision="FP16" type="ReLU">
			<input>
				<port id="0">
					<dim>1</dim>
					<dim>160</dim>
					<dim>38</dim>
					<dim>64</dim>
				</port>
			</input>
			<output>
				<port id="1">
					<dim>1</dim>
					<dim>160</dim>
					<dim>38</dim>
					<dim>64</dim>
				</port>
			</output>
		</layer>
		<layer id="141" name="FirstStageFeatureExtractor/InceptionV2/InceptionV2/Mixed_4d/Branch_3/AvgPool_0a_3x3/AvgPool" precision="FP16" type="Pooling">
			<data auto_pad="same_upper" exclude-pad="true" kernel="3,3" pads_begin="1,1" pads_end="1,1" pool-method="avg" strides="1,1"/>
			<input>
				<port id="0">
					<dim>1</dim>
					<dim>576</dim>
					<dim>38</dim>
					<dim>64</dim>
				</port>
			</input>
			<output>
				<port id="1">
					<dim>1</dim>
					<dim>576</dim>
					<dim>38</dim>
					<dim>64</dim>
				</port>
			</output>
		</layer>
		<layer id="142" name="FirstStageFeatureExtractor/InceptionV2/InceptionV2/Mixed_4d/Branch_3/Conv2d_0b_1x1/Conv2D" precision="FP16" type="Convolution">
			<data auto_pad="same_upper" dilations="1,1" group="1" kernel="1,1" output="96" pads_begin="0,0" pads_end="0,0" strides="1,1"/>
			<input>
				<port id="0">
					<dim>1</dim>
					<dim>576</dim>
					<dim>38</dim>
					<dim>64</dim>
				</port>
			</input>
			<output>
				<port id="2">
					<dim>1</dim>
					<dim>96</dim>
					<dim>38</dim>
					<dim>64</dim>
				</port>
			</output>
			<blobs>
				<weights offset="6188976" size="110592"/>
			</blobs>
		</layer>
		<layer id="143" name="ScaleShift/FirstStageFeatureExtractor/InceptionV2/InceptionV2/Mixed_4d/Branch_3/Conv2d_0b_1x1/BatchNorm/FusedBatchNorm/Add" precision="FP16" type="ScaleShift">
			<input>
				<port id="0">
					<dim>1</dim>
					<dim>96</dim>
					<dim>38</dim>
					<dim>64</dim>
				</port>
			</input>
			<output>
				<port id="3">
					<dim>1</dim>
					<dim>96</dim>
					<dim>38</dim>
					<dim>64</dim>
				</port>
			</output>
			<blobs>
				<weights offset="494512" size="192"/>
				<biases offset="6299568" size="192"/>
			</blobs>
		</layer>
		<layer id="144" name="FirstStageFeatureExtractor/InceptionV2/InceptionV2/Mixed_4d/Branch_3/Conv2d_0b_1x1/Relu" precision="FP16" type="ReLU">
			<input>
				<port id="0">
					<dim>1</dim>
					<dim>96</dim>
					<dim>38</dim>
					<dim>64</dim>
				</port>
			</input>
			<output>
				<port id="1">
					<dim>1</dim>
					<dim>96</dim>
					<dim>38</dim>
					<dim>64</dim>
				</port>
			</output>
		</layer>
		<layer id="145" name="FirstStageFeatureExtractor/InceptionV2/InceptionV2/Mixed_4d/concat" precision="FP16" type="Concat">
			<data axis="1"/>
			<input>
				<port id="0">
					<dim>1</dim>
					<dim>160</dim>
					<dim>38</dim>
					<dim>64</dim>
				</port>
				<port id="1">
					<dim>1</dim>
					<dim>160</dim>
					<dim>38</dim>
					<dim>64</dim>
				</port>
				<port id="2">
					<dim>1</dim>
					<dim>160</dim>
					<dim>38</dim>
					<dim>64</dim>
				</port>
				<port id="3">
					<dim>1</dim>
					<dim>96</dim>
					<dim>38</dim>
					<dim>64</dim>
				</port>
			</input>
			<output>
				<port id="4">
					<dim>1</dim>
					<dim>576</dim>
					<dim>38</dim>
					<dim>64</dim>
				</port>
			</output>
		</layer>
		<layer id="146" name="FirstStageFeatureExtractor/InceptionV2/InceptionV2/Mixed_4e/Branch_0/Conv2d_0a_1x1/Conv2D" precision="FP16" type="Convolution">
			<data auto_pad="same_upper" dilations="1,1" group="1" kernel="1,1" output="96" pads_begin="0,0" pads_end="0,0" strides="1,1"/>
			<input>
				<port id="0">
					<dim>1</dim>
					<dim>576</dim>
					<dim>38</dim>
					<dim>64</dim>
				</port>
			</input>
			<output>
				<port id="2">
					<dim>1</dim>
					<dim>96</dim>
					<dim>38</dim>
					<dim>64</dim>
				</port>
			</output>
			<blobs>
				<weights offset="6299760" size="110592"/>
			</blobs>
		</layer>
		<layer id="147" name="ScaleShift/FirstStageFeatureExtractor/InceptionV2/InceptionV2/Mixed_4e/Branch_0/Conv2d_0a_1x1/BatchNorm/FusedBatchNorm/Add" precision="FP16" type="ScaleShift">
			<input>
				<port id="0">
					<dim>1</dim>
					<dim>96</dim>
					<dim>38</dim>
					<dim>64</dim>
				</port>
			</input>
			<output>
				<port id="3">
					<dim>1</dim>
					<dim>96</dim>
					<dim>38</dim>
					<dim>64</dim>
				</port>
			</output>
			<blobs>
				<weights offset="494512" size="192"/>
				<biases offset="6410352" size="192"/>
			</blobs>
		</layer>
		<layer id="148" name="FirstStageFeatureExtractor/InceptionV2/InceptionV2/Mixed_4e/Branch_0/Conv2d_0a_1x1/Relu" precision="FP16" type="ReLU">
			<input>
				<port id="0">
					<dim>1</dim>
					<dim>96</dim>
					<dim>38</dim>
					<dim>64</dim>
				</port>
			</input>
			<output>
				<port id="1">
					<dim>1</dim>
					<dim>96</dim>
					<dim>38</dim>
					<dim>64</dim>
				</port>
			</output>
		</layer>
		<layer id="149" name="FirstStageFeatureExtractor/InceptionV2/InceptionV2/Mixed_4e/Branch_1/Conv2d_0a_1x1/Conv2D" precision="FP16" type="Convolution">
			<data auto_pad="same_upper" dilations="1,1" group="1" kernel="1,1" output="128" pads_begin="0,0" pads_end="0,0" strides="1,1"/>
			<input>
				<port id="0">
					<dim>1</dim>
					<dim>576</dim>
					<dim>38</dim>
					<dim>64</dim>
				</port>
			</input>
			<output>
				<port id="2">
					<dim>1</dim>
					<dim>128</dim>
					<dim>38</dim>
					<dim>64</dim>
				</port>
			</output>
			<blobs>
				<weights offset="6410544" size="147456"/>
			</blobs>
		</layer>
		<layer id="150" name="ScaleShift/FirstStageFeatureExtractor/InceptionV2/InceptionV2/Mixed_4e/Branch_1/Conv2d_0a_1x1/BatchNorm/FusedBatchNorm/Add" precision="FP16" type="ScaleShift">
			<input>
				<port id="0">
					<dim>1</dim>
					<dim>128</dim>
					<dim>38</dim>
					<dim>64</dim>
				</port>
			</input>
			<output>
				<port id="3">
					<dim>1</dim>
					<dim>128</dim>
					<dim>38</dim>
					<dim>64</dim>
				</port>
			</output>
			<blobs>
				<weights offset="1274544" size="256"/>
				<biases offset="6558000" size="256"/>
			</blobs>
		</layer>
		<layer id="151" name="FirstStageFeatureExtractor/InceptionV2/InceptionV2/Mixed_4e/Branch_1/Conv2d_0a_1x1/Relu" precision="FP16" type="ReLU">
			<input>
				<port id="0">
					<dim>1</dim>
					<dim>128</dim>
					<dim>38</dim>
					<dim>64</dim>
				</port>
			</input>
			<output>
				<port id="1">
					<dim>1</dim>
					<dim>128</dim>
					<dim>38</dim>
					<dim>64</dim>
				</port>
			</output>
		</layer>
		<layer id="152" name="FirstStageFeatureExtractor/InceptionV2/InceptionV2/Mixed_4e/Branch_1/Conv2d_0b_3x3/Conv2D" precision="FP16" type="Convolution">
			<data auto_pad="same_upper" dilations="1,1" group="1" kernel="3,3" output="192" pads_begin="1,1" pads_end="1,1" strides="1,1"/>
			<input>
				<port id="0">
					<dim>1</dim>
					<dim>128</dim>
					<dim>38</dim>
					<dim>64</dim>
				</port>
			</input>
			<output>
				<port id="2">
					<dim>1</dim>
					<dim>192</dim>
					<dim>38</dim>
					<dim>64</dim>
				</port>
			</output>
			<blobs>
				<weights offset="6558256" size="442368"/>
			</blobs>
		</layer>
		<layer id="153" name="ScaleShift/FirstStageFeatureExtractor/InceptionV2/InceptionV2/Mixed_4e/Branch_1/Conv2d_0b_3x3/BatchNorm/FusedBatchNorm/Add" precision="FP16" type="ScaleShift">
			<input>
				<port id="0">
					<dim>1</dim>
					<dim>192</dim>
					<dim>38</dim>
					<dim>64</dim>
				</port>
			</input>
			<output>
				<port id="3">
					<dim>1</dim>
					<dim>192</dim>
					<dim>38</dim>
					<dim>64</dim>
				</port>
			</output>
			<blobs>
				<weights offset="235184" size="384"/>
				<biases offset="7000624" size="384"/>
			</blobs>
		</layer>
		<layer id="154" name="FirstStageFeatureExtractor/InceptionV2/InceptionV2/Mixed_4e/Branch_1/Conv2d_0b_3x3/Relu" precision="FP16" type="ReLU">
			<input>
				<port id="0">
					<dim>1</dim>
					<dim>192</dim>
					<dim>38</dim>
					<dim>64</dim>
				</port>
			</input>
			<output>
				<port id="1">
					<dim>1</dim>
					<dim>192</dim>
					<dim>38</dim>
					<dim>64</dim>
				</port>
			</output>
		</layer>
		<layer id="155" name="FirstStageFeatureExtractor/InceptionV2/InceptionV2/Mixed_4e/Branch_2/Conv2d_0a_1x1/Conv2D" precision="FP16" type="Convolution">
			<data auto_pad="same_upper" dilations="1,1" group="1" kernel="1,1" output="160" pads_begin="0,0" pads_end="0,0" strides="1,1"/>
			<input>
				<port id="0">
					<dim>1</dim>
					<dim>576</dim>
					<dim>38</dim>
					<dim>64</dim>
				</port>
			</input>
			<output>
				<port id="2">
					<dim>1</dim>
					<dim>160</dim>
					<dim>38</dim>
					<dim>64</dim>
				</port>
			</output>
			<blobs>
				<weights offset="7001008" size="184320"/>
			</blobs>
		</layer>
		<layer id="156" name="ScaleShift/FirstStageFeatureExtractor/InceptionV2/InceptionV2/Mixed_4e/Branch_2/Conv2d_0a_1x1/BatchNorm/FusedBatchNorm/Add" precision="FP16" type="ScaleShift">
			<input>
				<port id="0">
					<dim>1</dim>
					<dim>160</dim>
					<dim>38</dim>
					<dim>64</dim>
				</port>
			</input>
			<output>
				<port id="3">
					<dim>1</dim>
					<dim>160</dim>
					<dim>38</dim>
					<dim>64</dim>
				</port>
			</output>
			<blobs>
				<weights offset="1643696" size="320"/>
				<biases offset="7185328" size="320"/>
			</blobs>
		</layer>
		<layer id="157" name="FirstStageFeatureExtractor/InceptionV2/InceptionV2/Mixed_4e/Branch_2/Conv2d_0a_1x1/Relu" precision="FP16" type="ReLU">
			<input>
				<port id="0">
					<dim>1</dim>
					<dim>160</dim>
					<dim>38</dim>
					<dim>64</dim>
				</port>
			</input>
			<output>
				<port id="1">
					<dim>1</dim>
					<dim>160</dim>
					<dim>38</dim>
					<dim>64</dim>
				</port>
			</output>
		</layer>
		<layer id="158" name="FirstStageFeatureExtractor/InceptionV2/InceptionV2/Mixed_4e/Branch_2/Conv2d_0b_3x3/Conv2D" precision="FP16" type="Convolution">
			<data auto_pad="same_upper" dilations="1,1" group="1" kernel="3,3" output="192" pads_begin="1,1" pads_end="1,1" strides="1,1"/>
			<input>
				<port id="0">
					<dim>1</dim>
					<dim>160</dim>
					<dim>38</dim>
					<dim>64</dim>
				</port>
			</input>
			<output>
				<port id="2">
					<dim>1</dim>
					<dim>192</dim>
					<dim>38</dim>
					<dim>64</dim>
				</port>
			</output>
			<blobs>
				<weights offset="7185648" size="552960"/>
			</blobs>
		</layer>
		<layer id="159" name="ScaleShift/FirstStageFeatureExtractor/InceptionV2/InceptionV2/Mixed_4e/Branch_2/Conv2d_0b_3x3/BatchNorm/FusedBatchNorm/Add" precision="FP16" type="ScaleShift">
			<input>
				<port id="0">
					<dim>1</dim>
					<dim>192</dim>
					<dim>38</dim>
					<dim>64</dim>
				</port>
			</input>
			<output>
				<port id="3">
					<dim>1</dim>
					<dim>192</dim>
					<dim>38</dim>
					<dim>64</dim>
				</port>
			</output>
			<blobs>
				<weights offset="235184" size="384"/>
				<biases offset="7738608" size="384"/>
			</blobs>
		</layer>
		<layer id="160" name="FirstStageFeatureExtractor/InceptionV2/InceptionV2/Mixed_4e/Branch_2/Conv2d_0b_3x3/Relu" precision="FP16" type="ReLU">
			<input>
				<port id="0">
					<dim>1</dim>
					<dim>192</dim>
					<dim>38</dim>
					<dim>64</dim>
				</port>
			</input>
			<output>
				<port id="1">
					<dim>1</dim>
					<dim>192</dim>
					<dim>38</dim>
					<dim>64</dim>
				</port>
			</output>
		</layer>
		<layer id="161" name="FirstStageFeatureExtractor/InceptionV2/InceptionV2/Mixed_4e/Branch_2/Conv2d_0c_3x3/Conv2D" precision="FP16" type="Convolution">
			<data auto_pad="same_upper" dilations="1,1" group="1" kernel="3,3" output="192" pads_begin="1,1" pads_end="1,1" strides="1,1"/>
			<input>
				<port id="0">
					<dim>1</dim>
					<dim>192</dim>
					<dim>38</dim>
					<dim>64</dim>
				</port>
			</input>
			<output>
				<port id="2">
					<dim>1</dim>
					<dim>192</dim>
					<dim>38</dim>
					<dim>64</dim>
				</port>
			</output>
			<blobs>
				<weights offset="7738992" size="663552"/>
			</blobs>
		</layer>
		<layer id="162" name="ScaleShift/FirstStageFeatureExtractor/InceptionV2/InceptionV2/Mixed_4e/Branch_2/Conv2d_0c_3x3/BatchNorm/FusedBatchNorm/Add" precision="FP16" type="ScaleShift">
			<input>
				<port id="0">
					<dim>1</dim>
					<dim>192</dim>
					<dim>38</dim>
					<dim>64</dim>
				</port>
			</input>
			<output>
				<port id="3">
					<dim>1</dim>
					<dim>192</dim>
					<dim>38</dim>
					<dim>64</dim>
				</port>
			</output>
			<blobs>
				<weights offset="235184" size="384"/>
				<biases offset="8402544" size="384"/>
			</blobs>
		</layer>
		<layer id="163" name="FirstStageFeatureExtractor/InceptionV2/InceptionV2/Mixed_4e/Branch_2/Conv2d_0c_3x3/Relu" precision="FP16" type="ReLU">
			<input>
				<port id="0">
					<dim>1</dim>
					<dim>192</dim>
					<dim>38</dim>
					<dim>64</dim>
				</port>
			</input>
			<output>
				<port id="1">
					<dim>1</dim>
					<dim>192</dim>
					<dim>38</dim>
					<dim>64</dim>
				</port>
			</output>
		</layer>
		<layer id="164" name="FirstStageFeatureExtractor/InceptionV2/InceptionV2/Mixed_4e/Branch_3/AvgPool_0a_3x3/AvgPool" precision="FP16" type="Pooling">
			<data auto_pad="same_upper" exclude-pad="true" kernel="3,3" pads_begin="1,1" pads_end="1,1" pool-method="avg" strides="1,1"/>
			<input>
				<port id="0">
					<dim>1</dim>
					<dim>576</dim>
					<dim>38</dim>
					<dim>64</dim>
				</port>
			</input>
			<output>
				<port id="1">
					<dim>1</dim>
					<dim>576</dim>
					<dim>38</dim>
					<dim>64</dim>
				</port>
			</output>
		</layer>
		<layer id="165" name="FirstStageFeatureExtractor/InceptionV2/InceptionV2/Mixed_4e/Branch_3/Conv2d_0b_1x1/Conv2D" precision="FP16" type="Convolution">
			<data auto_pad="same_upper" dilations="1,1" group="1" kernel="1,1" output="96" pads_begin="0,0" pads_end="0,0" strides="1,1"/>
			<input>
				<port id="0">
					<dim>1</dim>
					<dim>576</dim>
					<dim>38</dim>
					<dim>64</dim>
				</port>
			</input>
			<output>
				<port id="2">
					<dim>1</dim>
					<dim>96</dim>
					<dim>38</dim>
					<dim>64</dim>
				</port>
			</output>
			<blobs>
				<weights offset="8402928" size="110592"/>
			</blobs>
		</layer>
		<layer id="166" name="ScaleShift/FirstStageFeatureExtractor/InceptionV2/InceptionV2/Mixed_4e/Branch_3/Conv2d_0b_1x1/BatchNorm/FusedBatchNorm/Add" precision="FP16" type="ScaleShift">
			<input>
				<port id="0">
					<dim>1</dim>
					<dim>96</dim>
					<dim>38</dim>
					<dim>64</dim>
				</port>
			</input>
			<output>
				<port id="3">
					<dim>1</dim>
					<dim>96</dim>
					<dim>38</dim>
					<dim>64</dim>
				</port>
			</output>
			<blobs>
				<weights offset="494512" size="192"/>
				<biases offset="8513520" size="192"/>
			</blobs>
		</layer>
		<layer id="167" name="FirstStageFeatureExtractor/InceptionV2/InceptionV2/Mixed_4e/Branch_3/Conv2d_0b_1x1/Relu" precision="FP16" type="ReLU">
			<input>
				<port id="0">
					<dim>1</dim>
					<dim>96</dim>
					<dim>38</dim>
					<dim>64</dim>
				</port>
			</input>
			<output>
				<port id="1">
					<dim>1</dim>
					<dim>96</dim>
					<dim>38</dim>
					<dim>64</dim>
				</port>
			</output>
		</layer>
		<layer id="168" name="FirstStageFeatureExtractor/InceptionV2/InceptionV2/Mixed_4e/concat" precision="FP16" type="Concat">
			<data axis="1"/>
			<input>
				<port id="0">
					<dim>1</dim>
					<dim>96</dim>
					<dim>38</dim>
					<dim>64</dim>
				</port>
				<port id="1">
					<dim>1</dim>
					<dim>192</dim>
					<dim>38</dim>
					<dim>64</dim>
				</port>
				<port id="2">
					<dim>1</dim>
					<dim>192</dim>
					<dim>38</dim>
					<dim>64</dim>
				</port>
				<port id="3">
					<dim>1</dim>
					<dim>96</dim>
					<dim>38</dim>
					<dim>64</dim>
				</port>
			</input>
			<output>
				<port id="4">
					<dim>1</dim>
					<dim>576</dim>
					<dim>38</dim>
					<dim>64</dim>
				</port>
			</output>
		</layer>
		<layer id="169" name="Conv/Conv2D" precision="FP16" type="Convolution">
			<data auto_pad="same_upper" dilations="1,1" group="1" kernel="3,3" output="512" pads_begin="1,1" pads_end="1,1" strides="1,1"/>
			<input>
				<port id="0">
					<dim>1</dim>
					<dim>576</dim>
					<dim>38</dim>
					<dim>64</dim>
				</port>
			</input>
			<output>
				<port id="2">
					<dim>1</dim>
					<dim>512</dim>
					<dim>38</dim>
					<dim>64</dim>
				</port>
			</output>
			<blobs>
				<weights offset="8513712" size="5308416"/>
			</blobs>
		</layer>
		<layer id="170" name="ScaleShift/Conv/BiasAdd/Add" precision="FP16" type="ScaleShift">
			<input>
				<port id="0">
					<dim>1</dim>
					<dim>512</dim>
					<dim>38</dim>
					<dim>64</dim>
				</port>
			</input>
			<output>
				<port id="3">
					<dim>1</dim>
					<dim>512</dim>
					<dim>38</dim>
					<dim>64</dim>
				</port>
			</output>
			<blobs>
				<weights offset="13822128" size="1024"/>
				<biases offset="13823152" size="1024"/>
			</blobs>
		</layer>
		<layer id="171" name="Conv/Relu6" precision="FP16" type="Clamp">
			<data max="6" min="0"/>
			<input>
				<port id="0">
					<dim>1</dim>
					<dim>512</dim>
					<dim>38</dim>
					<dim>64</dim>
				</port>
			</input>
			<output>
				<port id="1">
					<dim>1</dim>
					<dim>512</dim>
					<dim>38</dim>
					<dim>64</dim>
				</port>
			</output>
		</layer>
		<layer id="172" name="FirstStageBoxPredictor/ClassPredictor/Conv2D" precision="FP16" type="Convolution">
			<data auto_pad="same_upper" dilations="1,1" group="1" kernel="1,1" output="24" pads_begin="0,0" pads_end="0,0" strides="1,1"/>
			<input>
				<port id="0">
					<dim>1</dim>
					<dim>512</dim>
					<dim>38</dim>
					<dim>64</dim>
				</port>
			</input>
			<output>
				<port id="2">
					<dim>1</dim>
					<dim>24</dim>
					<dim>38</dim>
					<dim>64</dim>
				</port>
			</output>
			<blobs>
				<weights offset="13824176" size="24576"/>
			</blobs>
		</layer>
		<layer id="173" name="ScaleShift/FirstStageBoxPredictor/ClassPredictor/BiasAdd/Add" precision="FP16" type="ScaleShift">
			<input>
				<port id="0">
					<dim>1</dim>
					<dim>24</dim>
					<dim>38</dim>
					<dim>64</dim>
				</port>
			</input>
			<output>
				<port id="3">
					<dim>1</dim>
					<dim>24</dim>
					<dim>38</dim>
					<dim>64</dim>
				</port>
			</output>
			<blobs>
				<weights offset="13848752" size="48"/>
				<biases offset="13848800" size="48"/>
			</blobs>
		</layer>
		<layer id="174" name="predictions/Reshape/value/Output_0/Data__const" precision="I32" type="Const">
			<output>
				<port id="1">
					<dim>4</dim>
				</port>
			</output>
			<blobs>
				<custom offset="13848848" size="16"/>
			</blobs>
		</layer>
		<layer id="175" name="predictions/Reshape" precision="FP16" type="Reshape">
			<input>
				<port id="0">
					<dim>1</dim>
					<dim>24</dim>
					<dim>38</dim>
					<dim>64</dim>
				</port>
				<port id="1">
					<dim>4</dim>
				</port>
			</input>
			<output>
				<port id="2">
					<dim>1</dim>
					<dim>12</dim>
					<dim>2</dim>
					<dim>2432</dim>
				</port>
			</output>
		</layer>
		<layer id="176" name="predictions/Reshape/Softmax" precision="FP16" type="SoftMax">
			<data axis="2"/>
			<input>
				<port id="0">
					<dim>1</dim>
					<dim>12</dim>
					<dim>2</dim>
					<dim>2432</dim>
				</port>
			</input>
			<output>
				<port id="1">
					<dim>1</dim>
					<dim>12</dim>
					<dim>2</dim>
					<dim>2432</dim>
				</port>
			</output>
		</layer>
		<layer id="177" name="predictions/Reshape/Softmax/Transpose" precision="FP16" type="Permute">
			<data order="0,2,1,3"/>
			<input>
				<port id="0">
					<dim>1</dim>
					<dim>12</dim>
					<dim>2</dim>
					<dim>2432</dim>
				</port>
			</input>
			<output>
				<port id="1">
					<dim>1</dim>
					<dim>2</dim>
					<dim>12</dim>
					<dim>2432</dim>
				</port>
			</output>
		</layer>
		<layer id="178" name="20200_const" precision="I32" type="Const">
			<output>
				<port id="1">
					<dim>4</dim>
				</port>
			</output>
			<blobs>
				<custom offset="13848864" size="16"/>
			</blobs>
		</layer>
		<layer id="179" name="Reshape_Transpose_Class" precision="FP16" type="Reshape">
			<input>
				<port id="0">
					<dim>1</dim>
					<dim>2</dim>
					<dim>12</dim>
					<dim>2432</dim>
				</port>
				<port id="1">
					<dim>4</dim>
				</port>
			</input>
			<output>
				<port id="2">
					<dim>1</dim>
					<dim>24</dim>
					<dim>38</dim>
					<dim>64</dim>
				</port>
			</output>
		</layer>
		<layer id="180" name="FirstStageBoxPredictor/BoxEncodingPredictor/Conv2D" precision="FP16" type="Convolution">
			<data auto_pad="same_upper" dilations="1,1" group="1" kernel="1,1" output="48" pads_begin="0,0" pads_end="0,0" strides="1,1"/>
			<input>
				<port id="0">
					<dim>1</dim>
					<dim>512</dim>
					<dim>38</dim>
					<dim>64</dim>
				</port>
			</input>
			<output>
				<port id="2">
					<dim>1</dim>
					<dim>48</dim>
					<dim>38</dim>
					<dim>64</dim>
				</port>
			</output>
			<blobs>
				<weights offset="13848880" size="49152"/>
			</blobs>
		</layer>
		<layer id="181" name="ScaleShift/FirstStageBoxPredictor/BoxEncodingPredictor/BiasAdd/Add" precision="FP16" type="ScaleShift">
			<input>
				<port id="0">
					<dim>1</dim>
					<dim>48</dim>
					<dim>38</dim>
					<dim>64</dim>
				</port>
			</input>
			<output>
				<port id="3">
					<dim>1</dim>
					<dim>48</dim>
					<dim>38</dim>
					<dim>64</dim>
				</port>
			</output>
			<blobs>
				<weights offset="13898032" size="96"/>
				<biases offset="13898128" size="96"/>
			</blobs>
		</layer>
		<layer id="182" name="image_info" precision="FP16" type="Input">
			<output>
				<port id="0">
					<dim>1</dim>
					<dim>3</dim>
				</port>
			</output>
		</layer>
		<layer id="183" name="proposals" precision="FP16" type="Proposal">
			<data base_size="256" box_coordinate_scale="10.0" box_size_scale="5.0" clip_after_nms="0" clip_before_nms="1" feat_stride="16" for_deformable="0" framework="tensorflow" min_size="1" nms_thresh="0.699999988079" normalize="1" post_nms_topn="100" pre_nms_topn="2147483647" ratio="0.5,1.0,2.0" scale="0.25,0.5,1.0,2.0"/>
			<input>
				<port id="0">
					<dim>1</dim>
					<dim>24</dim>
					<dim>38</dim>
					<dim>64</dim>
				</port>
				<port id="1">
					<dim>1</dim>
					<dim>48</dim>
					<dim>38</dim>
					<dim>64</dim>
				</port>
				<port id="2">
					<dim>1</dim>
					<dim>3</dim>
				</port>
			</input>
			<output>
				<port id="3">
					<dim>100</dim>
					<dim>5</dim>
				</port>
			</output>
		</layer>
		<layer id="184" name="20196_const" precision="I32" type="Const">
			<output>
				<port id="1">
					<dim>4</dim>
				</port>
			</output>
			<blobs>
				<custom offset="13898224" size="16"/>
			</blobs>
		</layer>
		<layer id="185" name="proposals/reshape_4d" precision="FP16" type="Reshape">
			<input>
				<port id="0">
					<dim>100</dim>
					<dim>5</dim>
				</port>
				<port id="1">
					<dim>4</dim>
				</port>
			</input>
			<output>
				<port id="2">
					<dim>100</dim>
					<dim>5</dim>
					<dim>1</dim>
					<dim>1</dim>
				</port>
			</output>
		</layer>
		<layer id="186" name="proposals/conv" precision="FP16" type="Convolution">
			<data dilations="1,1" group="1" kernel="1,1" output="5" pads_begin="0,0" pads_end="0,0" strides="1,1"/>
			<input>
				<port id="0">
					<dim>100</dim>
					<dim>5</dim>
					<dim>1</dim>
					<dim>1</dim>
				</port>
			</input>
			<output>
				<port id="2">
					<dim>100</dim>
					<dim>5</dim>
					<dim>1</dim>
					<dim>1</dim>
				</port>
			</output>
			<blobs>
				<weights offset="13898240" size="50"/>
			</blobs>
		</layer>
		<layer id="187" name="reshape_swap_proposals_2d/value/Output_0/Data__const" precision="I32" type="Const">
			<output>
				<port id="1">
					<dim>2</dim>
				</port>
			</output>
			<blobs>
				<custom offset="13898290" size="8"/>
			</blobs>
		</layer>
		<layer id="188" name="reshape_swap_proposals_2d" precision="FP16" type="Reshape">
			<input>
				<port id="0">
					<dim>100</dim>
					<dim>5</dim>
					<dim>1</dim>
					<dim>1</dim>
				</port>
				<port id="1">
					<dim>2</dim>
				</port>
			</input>
			<output>
				<port id="2">
					<dim>100</dim>
					<dim>5</dim>
				</port>
			</output>
		</layer>
		<layer id="189" name="CropAndResize" precision="FP16" type="ROIPooling">
			<data method="bilinear" pooled_h="14" pooled_w="14" spatial_scale="1"/>
			<input>
				<port id="0">
					<dim>1</dim>
					<dim>576</dim>
					<dim>38</dim>
					<dim>64</dim>
				</port>
				<port id="1">
					<dim>100</dim>
					<dim>5</dim>
				</port>
			</input>
			<output>
				<port id="2">
					<dim>100</dim>
					<dim>576</dim>
					<dim>14</dim>
					<dim>14</dim>
				</port>
			</output>
		</layer>
		<layer id="190" name="MaxPool2D/MaxPool" precision="FP16" type="Pooling">
			<data auto_pad="valid" exclude-pad="true" kernel="2,2" pads_begin="0,0" pads_end="0,0" pool-method="max" strides="2,2"/>
			<input>
				<port id="0">
					<dim>100</dim>
					<dim>576</dim>
					<dim>14</dim>
					<dim>14</dim>
				</port>
			</input>
			<output>
				<port id="1">
					<dim>100</dim>
					<dim>576</dim>
					<dim>7</dim>
					<dim>7</dim>
				</port>
			</output>
		</layer>
		<layer id="191" name="SecondStageFeatureExtractor/InceptionV2/Mixed_5a/Branch_0/Conv2d_0a_1x1/Conv2D" precision="FP16" type="Convolution">
			<data auto_pad="same_upper" dilations="1,1" group="1" kernel="1,1" output="128" pads_begin="0,0" pads_end="0,0" strides="1,1"/>
			<input>
				<port id="0">
					<dim>100</dim>
					<dim>576</dim>
					<dim>7</dim>
					<dim>7</dim>
				</port>
			</input>
			<output>
				<port id="2">
					<dim>100</dim>
					<dim>128</dim>
					<dim>7</dim>
					<dim>7</dim>
				</port>
			</output>
			<blobs>
				<weights offset="13898298" size="147456"/>
			</blobs>
		</layer>
		<layer id="192" name="ScaleShift/SecondStageFeatureExtractor/InceptionV2/Mixed_5a/Branch_0/Conv2d_0a_1x1/BatchNorm/FusedBatchNorm/Add" precision="FP16" type="ScaleShift">
			<input>
				<port id="0">
					<dim>100</dim>
					<dim>128</dim>
					<dim>7</dim>
					<dim>7</dim>
				</port>
			</input>
			<output>
				<port id="3">
					<dim>100</dim>
					<dim>128</dim>
					<dim>7</dim>
					<dim>7</dim>
				</port>
			</output>
			<blobs>
				<weights offset="1274544" size="256"/>
				<biases offset="14045754" size="256"/>
			</blobs>
		</layer>
		<layer id="193" name="SecondStageFeatureExtractor/InceptionV2/Mixed_5a/Branch_0/Conv2d_0a_1x1/Relu" precision="FP16" type="ReLU">
			<input>
				<port id="0">
					<dim>100</dim>
					<dim>128</dim>
					<dim>7</dim>
					<dim>7</dim>
				</port>
			</input>
			<output>
				<port id="1">
					<dim>100</dim>
					<dim>128</dim>
					<dim>7</dim>
					<dim>7</dim>
				</port>
			</output>
		</layer>
		<layer id="194" name="SecondStageFeatureExtractor/InceptionV2/Mixed_5a/Branch_0/Conv2d_1a_3x3/Conv2D" precision="FP16" type="Convolution">
			<data auto_pad="same_upper" dilations="1,1" group="1" kernel="3,3" output="192" pads_begin="1,1" pads_end="1,1" strides="2,2"/>
			<input>
				<port id="0">
					<dim>100</dim>
					<dim>128</dim>
					<dim>7</dim>
					<dim>7</dim>
				</port>
			</input>
			<output>
				<port id="2">
					<dim>100</dim>
					<dim>192</dim>
					<dim>4</dim>
					<dim>4</dim>
				</port>
			</output>
			<blobs>
				<weights offset="14046010" size="442368"/>
			</blobs>
		</layer>
		<layer id="195" name="ScaleShift/SecondStageFeatureExtractor/InceptionV2/Mixed_5a/Branch_0/Conv2d_1a_3x3/BatchNorm/FusedBatchNorm/Add" precision="FP16" type="ScaleShift">
			<input>
				<port id="0">
					<dim>100</dim>
					<dim>192</dim>
					<dim>4</dim>
					<dim>4</dim>
				</port>
			</input>
			<output>
				<port id="3">
					<dim>100</dim>
					<dim>192</dim>
					<dim>4</dim>
					<dim>4</dim>
				</port>
			</output>
			<blobs>
				<weights offset="235184" size="384"/>
				<biases offset="14488378" size="384"/>
			</blobs>
		</layer>
		<layer id="196" name="SecondStageFeatureExtractor/InceptionV2/Mixed_5a/Branch_0/Conv2d_1a_3x3/Relu" precision="FP16" type="ReLU">
			<input>
				<port id="0">
					<dim>100</dim>
					<dim>192</dim>
					<dim>4</dim>
					<dim>4</dim>
				</port>
			</input>
			<output>
				<port id="1">
					<dim>100</dim>
					<dim>192</dim>
					<dim>4</dim>
					<dim>4</dim>
				</port>
			</output>
		</layer>
		<layer id="197" name="SecondStageFeatureExtractor/InceptionV2/Mixed_5a/Branch_1/Conv2d_0a_1x1/Conv2D" precision="FP16" type="Convolution">
			<data auto_pad="same_upper" dilations="1,1" group="1" kernel="1,1" output="192" pads_begin="0,0" pads_end="0,0" strides="1,1"/>
			<input>
				<port id="0">
					<dim>100</dim>
					<dim>576</dim>
					<dim>7</dim>
					<dim>7</dim>
				</port>
			</input>
			<output>
				<port id="2">
					<dim>100</dim>
					<dim>192</dim>
					<dim>7</dim>
					<dim>7</dim>
				</port>
			</output>
			<blobs>
				<weights offset="14488762" size="221184"/>
			</blobs>
		</layer>
		<layer id="198" name="ScaleShift/SecondStageFeatureExtractor/InceptionV2/Mixed_5a/Branch_1/Conv2d_0a_1x1/BatchNorm/FusedBatchNorm/Add" precision="FP16" type="ScaleShift">
			<input>
				<port id="0">
					<dim>100</dim>
					<dim>192</dim>
					<dim>7</dim>
					<dim>7</dim>
				</port>
			</input>
			<output>
				<port id="3">
					<dim>100</dim>
					<dim>192</dim>
					<dim>7</dim>
					<dim>7</dim>
				</port>
			</output>
			<blobs>
				<weights offset="235184" size="384"/>
				<biases offset="14709946" size="384"/>
			</blobs>
		</layer>
		<layer id="199" name="SecondStageFeatureExtractor/InceptionV2/Mixed_5a/Branch_1/Conv2d_0a_1x1/Relu" precision="FP16" type="ReLU">
			<input>
				<port id="0">
					<dim>100</dim>
					<dim>192</dim>
					<dim>7</dim>
					<dim>7</dim>
				</port>
			</input>
			<output>
				<port id="1">
					<dim>100</dim>
					<dim>192</dim>
					<dim>7</dim>
					<dim>7</dim>
				</port>
			</output>
		</layer>
		<layer id="200" name="SecondStageFeatureExtractor/InceptionV2/Mixed_5a/Branch_1/Conv2d_0b_3x3/Conv2D" precision="FP16" type="Convolution">
			<data auto_pad="same_upper" dilations="1,1" group="1" kernel="3,3" output="256" pads_begin="1,1" pads_end="1,1" strides="1,1"/>
			<input>
				<port id="0">
					<dim>100</dim>
					<dim>192</dim>
					<dim>7</dim>
					<dim>7</dim>
				</port>
			</input>
			<output>
				<port id="2">
					<dim>100</dim>
					<dim>256</dim>
					<dim>7</dim>
					<dim>7</dim>
				</port>
			</output>
			<blobs>
				<weights offset="14710330" size="884736"/>
			</blobs>
		</layer>
		<layer id="201" name="ScaleShift/SecondStageFeatureExtractor/InceptionV2/Mixed_5a/Branch_1/Conv2d_0b_3x3/BatchNorm/FusedBatchNorm/Add" precision="FP16" type="ScaleShift">
			<input>
				<port id="0">
					<dim>100</dim>
					<dim>256</dim>
					<dim>7</dim>
					<dim>7</dim>
				</port>
			</input>
			<output>
				<port id="3">
					<dim>100</dim>
					<dim>256</dim>
					<dim>7</dim>
					<dim>7</dim>
				</port>
			</output>
			<blobs>
				<weights offset="15595066" size="512"/>
				<biases offset="15595578" size="512"/>
			</blobs>
		</layer>
		<layer id="202" name="SecondStageFeatureExtractor/InceptionV2/Mixed_5a/Branch_1/Conv2d_0b_3x3/Relu" precision="FP16" type="ReLU">
			<input>
				<port id="0">
					<dim>100</dim>
					<dim>256</dim>
					<dim>7</dim>
					<dim>7</dim>
				</port>
			</input>
			<output>
				<port id="1">
					<dim>100</dim>
					<dim>256</dim>
					<dim>7</dim>
					<dim>7</dim>
				</port>
			</output>
		</layer>
		<layer id="203" name="SecondStageFeatureExtractor/InceptionV2/Mixed_5a/Branch_1/Conv2d_1a_3x3/Conv2D" precision="FP16" type="Convolution">
			<data auto_pad="same_upper" dilations="1,1" group="1" kernel="3,3" output="256" pads_begin="1,1" pads_end="1,1" strides="2,2"/>
			<input>
				<port id="0">
					<dim>100</dim>
					<dim>256</dim>
					<dim>7</dim>
					<dim>7</dim>
				</port>
			</input>
			<output>
				<port id="2">
					<dim>100</dim>
					<dim>256</dim>
					<dim>4</dim>
					<dim>4</dim>
				</port>
			</output>
			<blobs>
				<weights offset="15596090" size="1179648"/>
			</blobs>
		</layer>
		<layer id="204" name="ScaleShift/SecondStageFeatureExtractor/InceptionV2/Mixed_5a/Branch_1/Conv2d_1a_3x3/BatchNorm/FusedBatchNorm/Add" precision="FP16" type="ScaleShift">
			<input>
				<port id="0">
					<dim>100</dim>
					<dim>256</dim>
					<dim>4</dim>
					<dim>4</dim>
				</port>
			</input>
			<output>
				<port id="3">
					<dim>100</dim>
					<dim>256</dim>
					<dim>4</dim>
					<dim>4</dim>
				</port>
			</output>
			<blobs>
				<weights offset="15595066" size="512"/>
				<biases offset="16775738" size="512"/>
			</blobs>
		</layer>
		<layer id="205" name="SecondStageFeatureExtractor/InceptionV2/Mixed_5a/Branch_1/Conv2d_1a_3x3/Relu" precision="FP16" type="ReLU">
			<input>
				<port id="0">
					<dim>100</dim>
					<dim>256</dim>
					<dim>4</dim>
					<dim>4</dim>
				</port>
			</input>
			<output>
				<port id="1">
					<dim>100</dim>
					<dim>256</dim>
					<dim>4</dim>
					<dim>4</dim>
				</port>
			</output>
		</layer>
		<layer id="206" name="SecondStageFeatureExtractor/InceptionV2/Mixed_5a/Branch_2/MaxPool_1a_3x3/MaxPool" precision="FP16" type="Pooling">
			<data auto_pad="same_upper" exclude-pad="true" kernel="3,3" pads_begin="1,1" pads_end="1,1" pool-method="max" strides="2,2"/>
			<input>
				<port id="0">
					<dim>100</dim>
					<dim>576</dim>
					<dim>7</dim>
					<dim>7</dim>
				</port>
			</input>
			<output>
				<port id="1">
					<dim>100</dim>
					<dim>576</dim>
					<dim>4</dim>
					<dim>4</dim>
				</port>
			</output>
		</layer>
		<layer id="207" name="SecondStageFeatureExtractor/InceptionV2/Mixed_5a/concat" precision="FP16" type="Concat">
			<data axis="1"/>
			<input>
				<port id="0">
					<dim>100</dim>
					<dim>192</dim>
					<dim>4</dim>
					<dim>4</dim>
				</port>
				<port id="1">
					<dim>100</dim>
					<dim>256</dim>
					<dim>4</dim>
					<dim>4</dim>
				</port>
				<port id="2">
					<dim>100</dim>
					<dim>576</dim>
					<dim>4</dim>
					<dim>4</dim>
				</port>
			</input>
			<output>
				<port id="3">
					<dim>100</dim>
					<dim>1024</dim>
					<dim>4</dim>
					<dim>4</dim>
				</port>
			</output>
		</layer>
		<layer id="208" name="SecondStageFeatureExtractor/InceptionV2/Mixed_5b/Branch_0/Conv2d_0a_1x1/Conv2D" precision="FP16" type="Convolution">
			<data auto_pad="same_upper" dilations="1,1" group="1" kernel="1,1" output="352" pads_begin="0,0" pads_end="0,0" strides="1,1"/>
			<input>
				<port id="0">
					<dim>100</dim>
					<dim>1024</dim>
					<dim>4</dim>
					<dim>4</dim>
				</port>
			</input>
			<output>
				<port id="2">
					<dim>100</dim>
					<dim>352</dim>
					<dim>4</dim>
					<dim>4</dim>
				</port>
			</output>
			<blobs>
				<weights offset="16776250" size="720896"/>
			</blobs>
		</layer>
		<layer id="209" name="ScaleShift/SecondStageFeatureExtractor/InceptionV2/Mixed_5b/Branch_0/Conv2d_0a_1x1/BatchNorm/FusedBatchNorm/Add" precision="FP16" type="ScaleShift">
			<input>
				<port id="0">
					<dim>100</dim>
					<dim>352</dim>
					<dim>4</dim>
					<dim>4</dim>
				</port>
			</input>
			<output>
				<port id="3">
					<dim>100</dim>
					<dim>352</dim>
					<dim>4</dim>
					<dim>4</dim>
				</port>
			</output>
			<blobs>
				<weights offset="17497146" size="704"/>
				<biases offset="17497850" size="704"/>
			</blobs>
		</layer>
		<layer id="210" name="SecondStageFeatureExtractor/InceptionV2/Mixed_5b/Branch_0/Conv2d_0a_1x1/Relu" precision="FP16" type="ReLU">
			<input>
				<port id="0">
					<dim>100</dim>
					<dim>352</dim>
					<dim>4</dim>
					<dim>4</dim>
				</port>
			</input>
			<output>
				<port id="1">
					<dim>100</dim>
					<dim>352</dim>
					<dim>4</dim>
					<dim>4</dim>
				</port>
			</output>
		</layer>
		<layer id="211" name="SecondStageFeatureExtractor/InceptionV2/Mixed_5b/Branch_1/Conv2d_0a_1x1/Conv2D" precision="FP16" type="Convolution">
			<data auto_pad="same_upper" dilations="1,1" group="1" kernel="1,1" output="192" pads_begin="0,0" pads_end="0,0" strides="1,1"/>
			<input>
				<port id="0">
					<dim>100</dim>
					<dim>1024</dim>
					<dim>4</dim>
					<dim>4</dim>
				</port>
			</input>
			<output>
				<port id="2">
					<dim>100</dim>
					<dim>192</dim>
					<dim>4</dim>
					<dim>4</dim>
				</port>
			</output>
			<blobs>
				<weights offset="17498554" size="393216"/>
			</blobs>
		</layer>
		<layer id="212" name="ScaleShift/SecondStageFeatureExtractor/InceptionV2/Mixed_5b/Branch_1/Conv2d_0a_1x1/BatchNorm/FusedBatchNorm/Add" precision="FP16" type="ScaleShift">
			<input>
				<port id="0">
					<dim>100</dim>
					<dim>192</dim>
					<dim>4</dim>
					<dim>4</dim>
				</port>
			</input>
			<output>
				<port id="3">
					<dim>100</dim>
					<dim>192</dim>
					<dim>4</dim>
					<dim>4</dim>
				</port>
			</output>
			<blobs>
				<weights offset="235184" size="384"/>
				<biases offset="17891770" size="384"/>
			</blobs>
		</layer>
		<layer id="213" name="SecondStageFeatureExtractor/InceptionV2/Mixed_5b/Branch_1/Conv2d_0a_1x1/Relu" precision="FP16" type="ReLU">
			<input>
				<port id="0">
					<dim>100</dim>
					<dim>192</dim>
					<dim>4</dim>
					<dim>4</dim>
				</port>
			</input>
			<output>
				<port id="1">
					<dim>100</dim>
					<dim>192</dim>
					<dim>4</dim>
					<dim>4</dim>
				</port>
			</output>
		</layer>
		<layer id="214" name="SecondStageFeatureExtractor/InceptionV2/Mixed_5b/Branch_1/Conv2d_0b_3x3/Conv2D" precision="FP16" type="Convolution">
			<data auto_pad="same_upper" dilations="1,1" group="1" kernel="3,3" output="320" pads_begin="1,1" pads_end="1,1" strides="1,1"/>
			<input>
				<port id="0">
					<dim>100</dim>
					<dim>192</dim>
					<dim>4</dim>
					<dim>4</dim>
				</port>
			</input>
			<output>
				<port id="2">
					<dim>100</dim>
					<dim>320</dim>
					<dim>4</dim>
					<dim>4</dim>
				</port>
			</output>
			<blobs>
				<weights offset="17892154" size="1105920"/>
			</blobs>
		</layer>
		<layer id="215" name="ScaleShift/SecondStageFeatureExtractor/InceptionV2/Mixed_5b/Branch_1/Conv2d_0b_3x3/BatchNorm/FusedBatchNorm/Add" precision="FP16" type="ScaleShift">
			<input>
				<port id="0">
					<dim>100</dim>
					<dim>320</dim>
					<dim>4</dim>
					<dim>4</dim>
				</port>
			</input>
			<output>
				<port id="3">
					<dim>100</dim>
					<dim>320</dim>
					<dim>4</dim>
					<dim>4</dim>
				</port>
			</output>
			<blobs>
				<weights offset="18998074" size="640"/>
				<biases offset="18998714" size="640"/>
			</blobs>
		</layer>
		<layer id="216" name="SecondStageFeatureExtractor/InceptionV2/Mixed_5b/Branch_1/Conv2d_0b_3x3/Relu" precision="FP16" type="ReLU">
			<input>
				<port id="0">
					<dim>100</dim>
					<dim>320</dim>
					<dim>4</dim>
					<dim>4</dim>
				</port>
			</input>
			<output>
				<port id="1">
					<dim>100</dim>
					<dim>320</dim>
					<dim>4</dim>
					<dim>4</dim>
				</port>
			</output>
		</layer>
		<layer id="217" name="SecondStageFeatureExtractor/InceptionV2/Mixed_5b/Branch_2/Conv2d_0a_1x1/Conv2D" precision="FP16" type="Convolution">
			<data auto_pad="same_upper" dilations="1,1" group="1" kernel="1,1" output="160" pads_begin="0,0" pads_end="0,0" strides="1,1"/>
			<input>
				<port id="0">
					<dim>100</dim>
					<dim>1024</dim>
					<dim>4</dim>
					<dim>4</dim>
				</port>
			</input>
			<output>
				<port id="2">
					<dim>100</dim>
					<dim>160</dim>
					<dim>4</dim>
					<dim>4</dim>
				</port>
			</output>
			<blobs>
				<weights offset="18999354" size="327680"/>
			</blobs>
		</layer>
		<layer id="218" name="ScaleShift/SecondStageFeatureExtractor/InceptionV2/Mixed_5b/Branch_2/Conv2d_0a_1x1/BatchNorm/FusedBatchNorm/Add" precision="FP16" type="ScaleShift">
			<input>
				<port id="0">
					<dim>100</dim>
					<dim>160</dim>
					<dim>4</dim>
					<dim>4</dim>
				</port>
			</input>
			<output>
				<port id="3">
					<dim>100</dim>
					<dim>160</dim>
					<dim>4</dim>
					<dim>4</dim>
				</port>
			</output>
			<blobs>
				<weights offset="1643696" size="320"/>
				<biases offset="19327034" size="320"/>
			</blobs>
		</layer>
		<layer id="219" name="SecondStageFeatureExtractor/InceptionV2/Mixed_5b/Branch_2/Conv2d_0a_1x1/Relu" precision="FP16" type="ReLU">
			<input>
				<port id="0">
					<dim>100</dim>
					<dim>160</dim>
					<dim>4</dim>
					<dim>4</dim>
				</port>
			</input>
			<output>
				<port id="1">
					<dim>100</dim>
					<dim>160</dim>
					<dim>4</dim>
					<dim>4</dim>
				</port>
			</output>
		</layer>
		<layer id="220" name="SecondStageFeatureExtractor/InceptionV2/Mixed_5b/Branch_2/Conv2d_0b_3x3/Conv2D" precision="FP16" type="Convolution">
			<data auto_pad="same_upper" dilations="1,1" group="1" kernel="3,3" output="224" pads_begin="1,1" pads_end="1,1" strides="1,1"/>
			<input>
				<port id="0">
					<dim>100</dim>
					<dim>160</dim>
					<dim>4</dim>
					<dim>4</dim>
				</port>
			</input>
			<output>
				<port id="2">
					<dim>100</dim>
					<dim>224</dim>
					<dim>4</dim>
					<dim>4</dim>
				</port>
			</output>
			<blobs>
				<weights offset="19327354" size="645120"/>
			</blobs>
		</layer>
		<layer id="221" name="ScaleShift/SecondStageFeatureExtractor/InceptionV2/Mixed_5b/Branch_2/Conv2d_0b_3x3/BatchNorm/FusedBatchNorm/Add" precision="FP16" type="ScaleShift">
			<input>
				<port id="0">
					<dim>100</dim>
					<dim>224</dim>
					<dim>4</dim>
					<dim>4</dim>
				</port>
			</input>
			<output>
				<port id="3">
					<dim>100</dim>
					<dim>224</dim>
					<dim>4</dim>
					<dim>4</dim>
				</port>
			</output>
			<blobs>
				<weights offset="2220336" size="448"/>
				<biases offset="19972474" size="448"/>
			</blobs>
		</layer>
		<layer id="222" name="SecondStageFeatureExtractor/InceptionV2/Mixed_5b/Branch_2/Conv2d_0b_3x3/Relu" precision="FP16" type="ReLU">
			<input>
				<port id="0">
					<dim>100</dim>
					<dim>224</dim>
					<dim>4</dim>
					<dim>4</dim>
				</port>
			</input>
			<output>
				<port id="1">
					<dim>100</dim>
					<dim>224</dim>
					<dim>4</dim>
					<dim>4</dim>
				</port>
			</output>
		</layer>
		<layer id="223" name="SecondStageFeatureExtractor/InceptionV2/Mixed_5b/Branch_2/Conv2d_0c_3x3/Conv2D" precision="FP16" type="Convolution">
			<data auto_pad="same_upper" dilations="1,1" group="1" kernel="3,3" output="224" pads_begin="1,1" pads_end="1,1" strides="1,1"/>
			<input>
				<port id="0">
					<dim>100</dim>
					<dim>224</dim>
					<dim>4</dim>
					<dim>4</dim>
				</port>
			</input>
			<output>
				<port id="2">
					<dim>100</dim>
					<dim>224</dim>
					<dim>4</dim>
					<dim>4</dim>
				</port>
			</output>
			<blobs>
				<weights offset="19972922" size="903168"/>
			</blobs>
		</layer>
		<layer id="224" name="ScaleShift/SecondStageFeatureExtractor/InceptionV2/Mixed_5b/Branch_2/Conv2d_0c_3x3/BatchNorm/FusedBatchNorm/Add" precision="FP16" type="ScaleShift">
			<input>
				<port id="0">
					<dim>100</dim>
					<dim>224</dim>
					<dim>4</dim>
					<dim>4</dim>
				</port>
			</input>
			<output>
				<port id="3">
					<dim>100</dim>
					<dim>224</dim>
					<dim>4</dim>
					<dim>4</dim>
				</port>
			</output>
			<blobs>
				<weights offset="2220336" size="448"/>
				<biases offset="20876090" size="448"/>
			</blobs>
		</layer>
		<layer id="225" name="SecondStageFeatureExtractor/InceptionV2/Mixed_5b/Branch_2/Conv2d_0c_3x3/Relu" precision="FP16" type="ReLU">
			<input>
				<port id="0">
					<dim>100</dim>
					<dim>224</dim>
					<dim>4</dim>
					<dim>4</dim>
				</port>
			</input>
			<output>
				<port id="1">
					<dim>100</dim>
					<dim>224</dim>
					<dim>4</dim>
					<dim>4</dim>
				</port>
			</output>
		</layer>
		<layer id="226" name="SecondStageFeatureExtractor/InceptionV2/Mixed_5b/Branch_3/AvgPool_0a_3x3/AvgPool" precision="FP16" type="Pooling">
			<data auto_pad="same_upper" exclude-pad="true" kernel="3,3" pads_begin="1,1" pads_end="1,1" pool-method="avg" strides="1,1"/>
			<input>
				<port id="0">
					<dim>100</dim>
					<dim>1024</dim>
					<dim>4</dim>
					<dim>4</dim>
				</port>
			</input>
			<output>
				<port id="1">
					<dim>100</dim>
					<dim>1024</dim>
					<dim>4</dim>
					<dim>4</dim>
				</port>
			</output>
		</layer>
		<layer id="227" name="SecondStageFeatureExtractor/InceptionV2/Mixed_5b/Branch_3/Conv2d_0b_1x1/Conv2D" precision="FP16" type="Convolution">
			<data auto_pad="same_upper" dilations="1,1" group="1" kernel="1,1" output="128" pads_begin="0,0" pads_end="0,0" strides="1,1"/>
			<input>
				<port id="0">
					<dim>100</dim>
					<dim>1024</dim>
					<dim>4</dim>
					<dim>4</dim>
				</port>
			</input>
			<output>
				<port id="2">
					<dim>100</dim>
					<dim>128</dim>
					<dim>4</dim>
					<dim>4</dim>
				</port>
			</output>
			<blobs>
				<weights offset="20876538" size="262144"/>
			</blobs>
		</layer>
		<layer id="228" name="ScaleShift/SecondStageFeatureExtractor/InceptionV2/Mixed_5b/Branch_3/Conv2d_0b_1x1/BatchNorm/FusedBatchNorm/Add" precision="FP16" type="ScaleShift">
			<input>
				<port id="0">
					<dim>100</dim>
					<dim>128</dim>
					<dim>4</dim>
					<dim>4</dim>
				</port>
			</input>
			<output>
				<port id="3">
					<dim>100</dim>
					<dim>128</dim>
					<dim>4</dim>
					<dim>4</dim>
				</port>
			</output>
			<blobs>
				<weights offset="1274544" size="256"/>
				<biases offset="21138682" size="256"/>
			</blobs>
		</layer>
		<layer id="229" name="SecondStageFeatureExtractor/InceptionV2/Mixed_5b/Branch_3/Conv2d_0b_1x1/Relu" precision="FP16" type="ReLU">
			<input>
				<port id="0">
					<dim>100</dim>
					<dim>128</dim>
					<dim>4</dim>
					<dim>4</dim>
				</port>
			</input>
			<output>
				<port id="1">
					<dim>100</dim>
					<dim>128</dim>
					<dim>4</dim>
					<dim>4</dim>
				</port>
			</output>
		</layer>
		<layer id="230" name="SecondStageFeatureExtractor/InceptionV2/Mixed_5b/concat" precision="FP16" type="Concat">
			<data axis="1"/>
			<input>
				<port id="0">
					<dim>100</dim>
					<dim>352</dim>
					<dim>4</dim>
					<dim>4</dim>
				</port>
				<port id="1">
					<dim>100</dim>
					<dim>320</dim>
					<dim>4</dim>
					<dim>4</dim>
				</port>
				<port id="2">
					<dim>100</dim>
					<dim>224</dim>
					<dim>4</dim>
					<dim>4</dim>
				</port>
				<port id="3">
					<dim>100</dim>
					<dim>128</dim>
					<dim>4</dim>
					<dim>4</dim>
				</port>
			</input>
			<output>
				<port id="4">
					<dim>100</dim>
					<dim>1024</dim>
					<dim>4</dim>
					<dim>4</dim>
				</port>
			</output>
		</layer>
		<layer id="231" name="SecondStageFeatureExtractor/InceptionV2/Mixed_5c/Branch_0/Conv2d_0a_1x1/Conv2D" precision="FP16" type="Convolution">
			<data auto_pad="same_upper" dilations="1,1" group="1" kernel="1,1" output="352" pads_begin="0,0" pads_end="0,0" strides="1,1"/>
			<input>
				<port id="0">
					<dim>100</dim>
					<dim>1024</dim>
					<dim>4</dim>
					<dim>4</dim>
				</port>
			</input>
			<output>
				<port id="2">
					<dim>100</dim>
					<dim>352</dim>
					<dim>4</dim>
					<dim>4</dim>
				</port>
			</output>
			<blobs>
				<weights offset="21138938" size="720896"/>
			</blobs>
		</layer>
		<layer id="232" name="ScaleShift/SecondStageFeatureExtractor/InceptionV2/Mixed_5c/Branch_0/Conv2d_0a_1x1/BatchNorm/FusedBatchNorm/Add" precision="FP16" type="ScaleShift">
			<input>
				<port id="0">
					<dim>100</dim>
					<dim>352</dim>
					<dim>4</dim>
					<dim>4</dim>
				</port>
			</input>
			<output>
				<port id="3">
					<dim>100</dim>
					<dim>352</dim>
					<dim>4</dim>
					<dim>4</dim>
				</port>
			</output>
			<blobs>
				<weights offset="17497146" size="704"/>
				<biases offset="21859834" size="704"/>
			</blobs>
		</layer>
		<layer id="233" name="SecondStageFeatureExtractor/InceptionV2/Mixed_5c/Branch_0/Conv2d_0a_1x1/Relu" precision="FP16" type="ReLU">
			<input>
				<port id="0">
					<dim>100</dim>
					<dim>352</dim>
					<dim>4</dim>
					<dim>4</dim>
				</port>
			</input>
			<output>
				<port id="1">
					<dim>100</dim>
					<dim>352</dim>
					<dim>4</dim>
					<dim>4</dim>
				</port>
			</output>
		</layer>
		<layer id="234" name="SecondStageFeatureExtractor/InceptionV2/Mixed_5c/Branch_1/Conv2d_0a_1x1/Conv2D" precision="FP16" type="Convolution">
			<data auto_pad="same_upper" dilations="1,1" group="1" kernel="1,1" output="192" pads_begin="0,0" pads_end="0,0" strides="1,1"/>
			<input>
				<port id="0">
					<dim>100</dim>
					<dim>1024</dim>
					<dim>4</dim>
					<dim>4</dim>
				</port>
			</input>
			<output>
				<port id="2">
					<dim>100</dim>
					<dim>192</dim>
					<dim>4</dim>
					<dim>4</dim>
				</port>
			</output>
			<blobs>
				<weights offset="21860538" size="393216"/>
			</blobs>
		</layer>
		<layer id="235" name="ScaleShift/SecondStageFeatureExtractor/InceptionV2/Mixed_5c/Branch_1/Conv2d_0a_1x1/BatchNorm/FusedBatchNorm/Add" precision="FP16" type="ScaleShift">
			<input>
				<port id="0">
					<dim>100</dim>
					<dim>192</dim>
					<dim>4</dim>
					<dim>4</dim>
				</port>
			</input>
			<output>
				<port id="3">
					<dim>100</dim>
					<dim>192</dim>
					<dim>4</dim>
					<dim>4</dim>
				</port>
			</output>
			<blobs>
				<weights offset="235184" size="384"/>
				<biases offset="22253754" size="384"/>
			</blobs>
		</layer>
		<layer id="236" name="SecondStageFeatureExtractor/InceptionV2/Mixed_5c/Branch_1/Conv2d_0a_1x1/Relu" precision="FP16" type="ReLU">
			<input>
				<port id="0">
					<dim>100</dim>
					<dim>192</dim>
					<dim>4</dim>
					<dim>4</dim>
				</port>
			</input>
			<output>
				<port id="1">
					<dim>100</dim>
					<dim>192</dim>
					<dim>4</dim>
					<dim>4</dim>
				</port>
			</output>
		</layer>
		<layer id="237" name="SecondStageFeatureExtractor/InceptionV2/Mixed_5c/Branch_1/Conv2d_0b_3x3/Conv2D" precision="FP16" type="Convolution">
			<data auto_pad="same_upper" dilations="1,1" group="1" kernel="3,3" output="320" pads_begin="1,1" pads_end="1,1" strides="1,1"/>
			<input>
				<port id="0">
					<dim>100</dim>
					<dim>192</dim>
					<dim>4</dim>
					<dim>4</dim>
				</port>
			</input>
			<output>
				<port id="2">
					<dim>100</dim>
					<dim>320</dim>
					<dim>4</dim>
					<dim>4</dim>
				</port>
			</output>
			<blobs>
				<weights offset="22254138" size="1105920"/>
			</blobs>
		</layer>
		<layer id="238" name="ScaleShift/SecondStageFeatureExtractor/InceptionV2/Mixed_5c/Branch_1/Conv2d_0b_3x3/BatchNorm/FusedBatchNorm/Add" precision="FP16" type="ScaleShift">
			<input>
				<port id="0">
					<dim>100</dim>
					<dim>320</dim>
					<dim>4</dim>
					<dim>4</dim>
				</port>
			</input>
			<output>
				<port id="3">
					<dim>100</dim>
					<dim>320</dim>
					<dim>4</dim>
					<dim>4</dim>
				</port>
			</output>
			<blobs>
				<weights offset="18998074" size="640"/>
				<biases offset="23360058" size="640"/>
			</blobs>
		</layer>
		<layer id="239" name="SecondStageFeatureExtractor/InceptionV2/Mixed_5c/Branch_1/Conv2d_0b_3x3/Relu" precision="FP16" type="ReLU">
			<input>
				<port id="0">
					<dim>100</dim>
					<dim>320</dim>
					<dim>4</dim>
					<dim>4</dim>
				</port>
			</input>
			<output>
				<port id="1">
					<dim>100</dim>
					<dim>320</dim>
					<dim>4</dim>
					<dim>4</dim>
				</port>
			</output>
		</layer>
		<layer id="240" name="SecondStageFeatureExtractor/InceptionV2/Mixed_5c/Branch_2/Conv2d_0a_1x1/Conv2D" precision="FP16" type="Convolution">
			<data auto_pad="same_upper" dilations="1,1" group="1" kernel="1,1" output="192" pads_begin="0,0" pads_end="0,0" strides="1,1"/>
			<input>
				<port id="0">
					<dim>100</dim>
					<dim>1024</dim>
					<dim>4</dim>
					<dim>4</dim>
				</port>
			</input>
			<output>
				<port id="2">
					<dim>100</dim>
					<dim>192</dim>
					<dim>4</dim>
					<dim>4</dim>
				</port>
			</output>
			<blobs>
				<weights offset="23360698" size="393216"/>
			</blobs>
		</layer>
		<layer id="241" name="ScaleShift/SecondStageFeatureExtractor/InceptionV2/Mixed_5c/Branch_2/Conv2d_0a_1x1/BatchNorm/FusedBatchNorm/Add" precision="FP16" type="ScaleShift">
			<input>
				<port id="0">
					<dim>100</dim>
					<dim>192</dim>
					<dim>4</dim>
					<dim>4</dim>
				</port>
			</input>
			<output>
				<port id="3">
					<dim>100</dim>
					<dim>192</dim>
					<dim>4</dim>
					<dim>4</dim>
				</port>
			</output>
			<blobs>
				<weights offset="235184" size="384"/>
				<biases offset="23753914" size="384"/>
			</blobs>
		</layer>
		<layer id="242" name="SecondStageFeatureExtractor/InceptionV2/Mixed_5c/Branch_2/Conv2d_0a_1x1/Relu" precision="FP16" type="ReLU">
			<input>
				<port id="0">
					<dim>100</dim>
					<dim>192</dim>
					<dim>4</dim>
					<dim>4</dim>
				</port>
			</input>
			<output>
				<port id="1">
					<dim>100</dim>
					<dim>192</dim>
					<dim>4</dim>
					<dim>4</dim>
				</port>
			</output>
		</layer>
		<layer id="243" name="SecondStageFeatureExtractor/InceptionV2/Mixed_5c/Branch_2/Conv2d_0b_3x3/Conv2D" precision="FP16" type="Convolution">
			<data auto_pad="same_upper" dilations="1,1" group="1" kernel="3,3" output="224" pads_begin="1,1" pads_end="1,1" strides="1,1"/>
			<input>
				<port id="0">
					<dim>100</dim>
					<dim>192</dim>
					<dim>4</dim>
					<dim>4</dim>
				</port>
			</input>
			<output>
				<port id="2">
					<dim>100</dim>
					<dim>224</dim>
					<dim>4</dim>
					<dim>4</dim>
				</port>
			</output>
			<blobs>
				<weights offset="23754298" size="774144"/>
			</blobs>
		</layer>
		<layer id="244" name="ScaleShift/SecondStageFeatureExtractor/InceptionV2/Mixed_5c/Branch_2/Conv2d_0b_3x3/BatchNorm/FusedBatchNorm/Add" precision="FP16" type="ScaleShift">
			<input>
				<port id="0">
					<dim>100</dim>
					<dim>224</dim>
					<dim>4</dim>
					<dim>4</dim>
				</port>
			</input>
			<output>
				<port id="3">
					<dim>100</dim>
					<dim>224</dim>
					<dim>4</dim>
					<dim>4</dim>
				</port>
			</output>
			<blobs>
				<weights offset="2220336" size="448"/>
				<biases offset="24528442" size="448"/>
			</blobs>
		</layer>
		<layer id="245" name="SecondStageFeatureExtractor/InceptionV2/Mixed_5c/Branch_2/Conv2d_0b_3x3/Relu" precision="FP16" type="ReLU">
			<input>
				<port id="0">
					<dim>100</dim>
					<dim>224</dim>
					<dim>4</dim>
					<dim>4</dim>
				</port>
			</input>
			<output>
				<port id="1">
					<dim>100</dim>
					<dim>224</dim>
					<dim>4</dim>
					<dim>4</dim>
				</port>
			</output>
		</layer>
		<layer id="246" name="SecondStageFeatureExtractor/InceptionV2/Mixed_5c/Branch_2/Conv2d_0c_3x3/Conv2D" precision="FP16" type="Convolution">
			<data auto_pad="same_upper" dilations="1,1" group="1" kernel="3,3" output="224" pads_begin="1,1" pads_end="1,1" strides="1,1"/>
			<input>
				<port id="0">
					<dim>100</dim>
					<dim>224</dim>
					<dim>4</dim>
					<dim>4</dim>
				</port>
			</input>
			<output>
				<port id="2">
					<dim>100</dim>
					<dim>224</dim>
					<dim>4</dim>
					<dim>4</dim>
				</port>
			</output>
			<blobs>
				<weights offset="24528890" size="903168"/>
			</blobs>
		</layer>
		<layer id="247" name="ScaleShift/SecondStageFeatureExtractor/InceptionV2/Mixed_5c/Branch_2/Conv2d_0c_3x3/BatchNorm/FusedBatchNorm/Add" precision="FP16" type="ScaleShift">
			<input>
				<port id="0">
					<dim>100</dim>
					<dim>224</dim>
					<dim>4</dim>
					<dim>4</dim>
				</port>
			</input>
			<output>
				<port id="3">
					<dim>100</dim>
					<dim>224</dim>
					<dim>4</dim>
					<dim>4</dim>
				</port>
			</output>
			<blobs>
				<weights offset="2220336" size="448"/>
				<biases offset="25432058" size="448"/>
			</blobs>
		</layer>
		<layer id="248" name="SecondStageFeatureExtractor/InceptionV2/Mixed_5c/Branch_2/Conv2d_0c_3x3/Relu" precision="FP16" type="ReLU">
			<input>
				<port id="0">
					<dim>100</dim>
					<dim>224</dim>
					<dim>4</dim>
					<dim>4</dim>
				</port>
			</input>
			<output>
				<port id="1">
					<dim>100</dim>
					<dim>224</dim>
					<dim>4</dim>
					<dim>4</dim>
				</port>
			</output>
		</layer>
		<layer id="249" name="SecondStageFeatureExtractor/InceptionV2/Mixed_5c/Branch_3/MaxPool_0a_3x3/MaxPool" precision="FP16" type="Pooling">
			<data auto_pad="same_upper" exclude-pad="true" kernel="3,3" pads_begin="1,1" pads_end="1,1" pool-method="max" strides="1,1"/>
			<input>
				<port id="0">
					<dim>100</dim>
					<dim>1024</dim>
					<dim>4</dim>
					<dim>4</dim>
				</port>
			</input>
			<output>
				<port id="1">
					<dim>100</dim>
					<dim>1024</dim>
					<dim>4</dim>
					<dim>4</dim>
				</port>
			</output>
		</layer>
		<layer id="250" name="SecondStageFeatureExtractor/InceptionV2/Mixed_5c/Branch_3/Conv2d_0b_1x1/Conv2D" precision="FP16" type="Convolution">
			<data auto_pad="same_upper" dilations="1,1" group="1" kernel="1,1" output="128" pads_begin="0,0" pads_end="0,0" strides="1,1"/>
			<input>
				<port id="0">
					<dim>100</dim>
					<dim>1024</dim>
					<dim>4</dim>
					<dim>4</dim>
				</port>
			</input>
			<output>
				<port id="2">
					<dim>100</dim>
					<dim>128</dim>
					<dim>4</dim>
					<dim>4</dim>
				</port>
			</output>
			<blobs>
				<weights offset="25432506" size="262144"/>
			</blobs>
		</layer>
		<layer id="251" name="ScaleShift/SecondStageFeatureExtractor/InceptionV2/Mixed_5c/Branch_3/Conv2d_0b_1x1/BatchNorm/FusedBatchNorm/Add" precision="FP16" type="ScaleShift">
			<input>
				<port id="0">
					<dim>100</dim>
					<dim>128</dim>
					<dim>4</dim>
					<dim>4</dim>
				</port>
			</input>
			<output>
				<port id="3">
					<dim>100</dim>
					<dim>128</dim>
					<dim>4</dim>
					<dim>4</dim>
				</port>
			</output>
			<blobs>
				<weights offset="1274544" size="256"/>
				<biases offset="25694650" size="256"/>
			</blobs>
		</layer>
		<layer id="252" name="SecondStageFeatureExtractor/InceptionV2/Mixed_5c/Branch_3/Conv2d_0b_1x1/Relu" precision="FP16" type="ReLU">
			<input>
				<port id="0">
					<dim>100</dim>
					<dim>128</dim>
					<dim>4</dim>
					<dim>4</dim>
				</port>
			</input>
			<output>
				<port id="1">
					<dim>100</dim>
					<dim>128</dim>
					<dim>4</dim>
					<dim>4</dim>
				</port>
			</output>
		</layer>
		<layer id="253" name="SecondStageFeatureExtractor/InceptionV2/Mixed_5c/concat" precision="FP16" type="Concat">
			<data axis="1"/>
			<input>
				<port id="0">
					<dim>100</dim>
					<dim>352</dim>
					<dim>4</dim>
					<dim>4</dim>
				</port>
				<port id="1">
					<dim>100</dim>
					<dim>320</dim>
					<dim>4</dim>
					<dim>4</dim>
				</port>
				<port id="2">
					<dim>100</dim>
					<dim>224</dim>
					<dim>4</dim>
					<dim>4</dim>
				</port>
				<port id="3">
					<dim>100</dim>
					<dim>128</dim>
					<dim>4</dim>
					<dim>4</dim>
				</port>
			</input>
			<output>
				<port id="4">
					<dim>100</dim>
					<dim>1024</dim>
					<dim>4</dim>
					<dim>4</dim>
				</port>
			</output>
		</layer>
		<layer id="254" name="21422_const" precision="I32" type="Const">
			<output>
				<port id="1">
					<dim>4</dim>
				</port>
			</output>
			<blobs>
				<custom offset="25694906" size="16"/>
			</blobs>
		</layer>
		<layer id="255" name="SecondStageBoxPredictor/AvgPool/Reshape" precision="FP16" type="Reshape">
			<input>
				<port id="0">
					<dim>100</dim>
					<dim>1024</dim>
					<dim>4</dim>
					<dim>4</dim>
				</port>
				<port id="1">
					<dim>4</dim>
				</port>
			</input>
			<output>
				<port id="2">
					<dim>100</dim>
					<dim>1024</dim>
					<dim>16</dim>
					<dim>1</dim>
				</port>
			</output>
		</layer>
		<layer id="256" name="SecondStageBoxPredictor/AvgPool/Pool" precision="FP16" type="Pooling">
			<data exclude-pad="false" kernel="16,1" pads_begin="0,0" pads_end="0,0" pool-method="avg" strides="1,1"/>
			<input>
				<port id="0">
					<dim>100</dim>
					<dim>1024</dim>
					<dim>16</dim>
					<dim>1</dim>
				</port>
			</input>
			<output>
				<port id="1">
					<dim>100</dim>
					<dim>1024</dim>
					<dim>1</dim>
					<dim>1</dim>
				</port>
			</output>
		</layer>
		<layer id="257" name="21424_const" precision="I32" type="Const">
			<output>
				<port id="1">
					<dim>4</dim>
				</port>
			</output>
			<blobs>
				<custom offset="25694922" size="16"/>
			</blobs>
		</layer>
		<layer id="258" name="SecondStageBoxPredictor/AvgPool/FinalReshape" precision="FP16" type="Reshape">
			<input>
				<port id="0">
					<dim>100</dim>
					<dim>1024</dim>
					<dim>1</dim>
					<dim>1</dim>
				</port>
				<port id="1">
					<dim>4</dim>
				</port>
			</input>
			<output>
				<port id="2">
					<dim>100</dim>
					<dim>1024</dim>
					<dim>1</dim>
					<dim>1</dim>
				</port>
			</output>
		</layer>
		<layer id="259" name="SecondStageBoxPredictor/AvgPool/Transpose" precision="FP16" type="Permute">
			<data order="0,2,3,1"/>
			<input>
				<port id="0">
					<dim>100</dim>
					<dim>1024</dim>
					<dim>1</dim>
					<dim>1</dim>
				</port>
			</input>
			<output>
				<port id="1">
					<dim>100</dim>
					<dim>1</dim>
					<dim>1</dim>
					<dim>1024</dim>
				</port>
			</output>
		</layer>
		<layer id="260" name="11129/Output_0/Data__const" precision="I32" type="Const">
			<output>
				<port id="1">
					<dim>2</dim>
				</port>
			</output>
			<blobs>
				<custom offset="25694938" size="8"/>
			</blobs>
		</layer>
		<layer id="261" name="SecondStageBoxPredictor/Flatten/flatten/Reshape" precision="FP16" type="Reshape">
			<input>
				<port id="0">
					<dim>100</dim>
					<dim>1</dim>
					<dim>1</dim>
					<dim>1024</dim>
				</port>
				<port id="1">
					<dim>2</dim>
				</port>
			</input>
			<output>
				<port id="2">
					<dim>100</dim>
					<dim>1024</dim>
				</port>
			</output>
		</layer>
		<layer id="262" name="SecondStageBoxPredictor/BoxEncodingPredictor/MatMul" precision="FP16" type="FullyConnected">
			<data out-size="360"/>
			<input>
				<port id="0">
					<dim>100</dim>
					<dim>1024</dim>
				</port>
			</input>
			<output>
				<port id="2">
					<dim>100</dim>
					<dim>360</dim>
				</port>
			</output>
			<blobs>
				<weights offset="25694946" size="737280"/>
			</blobs>
		</layer>
		<layer id="263" name="ScaleShift/SecondStageBoxPredictor/BoxEncodingPredictor/BiasAdd/Add" precision="FP16" type="ScaleShift">
			<input>
				<port id="0">
					<dim>100</dim>
					<dim>360</dim>
				</port>
			</input>
			<output>
				<port id="3">
					<dim>100</dim>
					<dim>360</dim>
				</port>
			</output>
			<blobs>
				<weights offset="26432226" size="720"/>
				<biases offset="26432946" size="720"/>
			</blobs>
		</layer>
		<layer id="264" name="reshape_loc/value/Output_0/Data__const" precision="I32" type="Const">
			<output>
				<port id="1">
					<dim>4</dim>
				</port>
			</output>
			<blobs>
				<custom offset="26433666" size="16"/>
			</blobs>
		</layer>
		<layer id="265" name="reshape_loc" precision="FP16" type="Reshape">
			<input>
				<port id="0">
					<dim>100</dim>
					<dim>360</dim>
				</port>
				<port id="1">
					<dim>4</dim>
				</port>
			</input>
			<output>
				<port id="2">
					<dim>100</dim>
					<dim>90</dim>
					<dim>1</dim>
					<dim>4</dim>
				</port>
			</output>
		</layer>
		<layer id="266" name="crop_locs" precision="FP16" type="Crop">
			<data axis="1" dim="1" offset="0"/>
			<input>
				<port id="0">
					<dim>100</dim>
					<dim>90</dim>
					<dim>1</dim>
					<dim>4</dim>
				</port>
			</input>
			<output>
				<port id="1">
					<dim>100</dim>
					<dim>1</dim>
					<dim>1</dim>
					<dim>4</dim>
				</port>
			</output>
		</layer>
		<layer id="267" name="reshape_loc/locs_with_fake_background" precision="FP16" type="Concat">
			<data axis="1"/>
			<input>
				<port id="0">
					<dim>100</dim>
					<dim>1</dim>
					<dim>1</dim>
					<dim>4</dim>
				</port>
				<port id="1">
					<dim>100</dim>
					<dim>90</dim>
					<dim>1</dim>
					<dim>4</dim>
				</port>
			</input>
			<output>
				<port id="2">
					<dim>100</dim>
					<dim>91</dim>
					<dim>1</dim>
					<dim>4</dim>
				</port>
			</output>
		</layer>
		<layer id="268" name="reshape_locs_2d/value/Output_0/Data__const" precision="I32" type="Const">
			<output>
				<port id="1">
					<dim>2</dim>
				</port>
			</output>
			<blobs>
				<custom offset="26433682" size="8"/>
			</blobs>
		</layer>
		<layer id="269" name="reshape_locs_2d" precision="FP16" type="Reshape">
			<input>
				<port id="0">
					<dim>100</dim>
					<dim>91</dim>
					<dim>1</dim>
					<dim>4</dim>
				</port>
				<port id="1">
					<dim>2</dim>
				</port>
			</input>
			<output>
				<port id="2">
					<dim>9100</dim>
					<dim>4</dim>
				</port>
			</output>
		</layer>
		<layer id="270" name="ScaleShift/scale_locs" precision="FP16" type="ScaleShift">
			<input>
				<port id="0">
					<dim>9100</dim>
					<dim>4</dim>
				</port>
			</input>
			<output>
				<port id="3">
					<dim>9100</dim>
					<dim>4</dim>
				</port>
			</output>
			<blobs>
				<weights offset="26433690" size="8"/>
				<biases offset="26433698" size="8"/>
			</blobs>
		</layer>
		<layer id="271" name="do_reshape_locs/Dim/Output_0/Data__const" precision="I32" type="Const">
			<output>
				<port id="1">
					<dim>2</dim>
				</port>
			</output>
			<blobs>
				<custom offset="26433706" size="8"/>
			</blobs>
		</layer>
		<layer id="272" name="do_reshape_locs" precision="FP16" type="Reshape">
			<input>
				<port id="0">
					<dim>9100</dim>
					<dim>4</dim>
				</port>
				<port id="1">
					<dim>2</dim>
				</port>
			</input>
			<output>
				<port id="2">
					<dim>1</dim>
					<dim>36400</dim>
				</port>
			</output>
		</layer>
		<layer id="273" name="SecondStageBoxPredictor/ClassPredictor/MatMul" precision="FP16" type="FullyConnected">
			<data out-size="91"/>
			<input>
				<port id="0">
					<dim>100</dim>
					<dim>1024</dim>
				</port>
			</input>
			<output>
				<port id="2">
					<dim>100</dim>
					<dim>91</dim>
				</port>
			</output>
			<blobs>
				<weights offset="26433714" size="186368"/>
			</blobs>
		</layer>
		<layer id="274" name="ScaleShift/SecondStageBoxPredictor/ClassPredictor/BiasAdd/Add" precision="FP16" type="ScaleShift">
			<input>
				<port id="0">
					<dim>100</dim>
					<dim>91</dim>
				</port>
			</input>
			<output>
				<port id="3">
					<dim>100</dim>
					<dim>91</dim>
				</port>
			</output>
			<blobs>
				<weights offset="26620082" size="182"/>
				<biases offset="26620264" size="182"/>
			</blobs>
		</layer>
		<layer id="275" name="SecondStageBoxPredictor/Reshape_1/shape/Output_0/Data__const" precision="I32" type="Const">
			<output>
				<port id="1">
					<dim>3</dim>
				</port>
			</output>
			<blobs>
				<custom offset="26620446" size="12"/>
			</blobs>
		</layer>
		<layer id="276" name="SecondStageBoxPredictor/Reshape_1" precision="FP16" type="Reshape">
			<input>
				<port id="0">
					<dim>100</dim>
					<dim>91</dim>
				</port>
				<port id="1">
					<dim>3</dim>
				</port>
			</input>
			<output>
				<port id="2">
					<dim>100</dim>
					<dim>1</dim>
					<dim>91</dim>
				</port>
			</output>
		</layer>
		<layer id="277" name="Squeeze_3/Dims/Output_0/Data__const" precision="I32" type="Const">
			<output>
				<port id="1">
					<dim>1</dim>
				</port>
			</output>
			<blobs>
				<custom offset="26620458" size="4"/>
			</blobs>
		</layer>
		<layer id="278" name="Squeeze_3" precision="FP16" type="Squeeze">
			<input>
				<port id="0">
					<dim>100</dim>
					<dim>1</dim>
					<dim>91</dim>
				</port>
				<port id="1">
					<dim>1</dim>
				</port>
			</input>
			<output>
				<port id="2">
					<dim>100</dim>
					<dim>91</dim>
				</port>
			</output>
		</layer>
		<layer id="279" name="Squeeze_3/softmax" precision="FP16" type="SoftMax">
			<data axis="1"/>
			<input>
				<port id="0">
					<dim>100</dim>
					<dim>91</dim>
				</port>
			</input>
			<output>
				<port id="1">
					<dim>100</dim>
					<dim>91</dim>
				</port>
			</output>
		</layer>
		<layer id="280" name="do_reshape_conf/value/Output_0/Data__const" precision="I32" type="Const">
			<output>
				<port id="1">
					<dim>2</dim>
				</port>
			</output>
			<blobs>
				<custom offset="26620462" size="8"/>
			</blobs>
		</layer>
		<layer id="281" name="do_reshape_conf" precision="FP16" type="Reshape">
			<input>
				<port id="0">
					<dim>100</dim>
					<dim>91</dim>
				</port>
				<port id="1">
					<dim>2</dim>
				</port>
			</input>
			<output>
				<port id="2">
					<dim>1</dim>
					<dim>9100</dim>
				</port>
			</output>
		</layer>
		<layer id="282" name="reshape_proposal_4d/value/Output_0/Data__const" precision="I32" type="Const">
			<output>
				<port id="1">
					<dim>4</dim>
				</port>
			</output>
			<blobs>
				<custom offset="26620470" size="16"/>
			</blobs>
		</layer>
		<layer id="283" name="reshape_proposal_4d" precision="FP16" type="Reshape">
			<input>
				<port id="0">
					<dim>100</dim>
					<dim>5</dim>
					<dim>1</dim>
					<dim>1</dim>
				</port>
				<port id="1">
					<dim>4</dim>
				</port>
			</input>
			<output>
				<port id="2">
					<dim>1</dim>
					<dim>1</dim>
					<dim>100</dim>
					<dim>5</dim>
				</port>
			</output>
		</layer>
		<layer id="284" name="crop_proposals" precision="FP16" type="Crop">
			<data axis="3" dim="4" offset="1"/>
			<input>
				<port id="0">
					<dim>1</dim>
					<dim>1</dim>
					<dim>100</dim>
					<dim>5</dim>
				</port>
			</input>
			<output>
				<port id="1">
					<dim>1</dim>
					<dim>1</dim>
					<dim>100</dim>
					<dim>4</dim>
				</port>
			</output>
		</layer>
		<layer id="285" name="DetectionOutput_reshape_priors_/value/Output_0/Data__const" precision="I32" type="Const">
			<output>
				<port id="1">
					<dim>3</dim>
				</port>
			</output>
			<blobs>
				<custom offset="26620486" size="12"/>
			</blobs>
		</layer>
		<layer id="286" name="DetectionOutput_reshape_priors_" precision="FP16" type="Reshape">
			<input>
				<port id="0">
					<dim>1</dim>
					<dim>1</dim>
					<dim>100</dim>
					<dim>4</dim>
				</port>
				<port id="1">
					<dim>3</dim>
				</port>
			</input>
			<output>
				<port id="2">
					<dim>1</dim>
					<dim>1</dim>
					<dim>400</dim>
				</port>
			</output>
		</layer>
		<layer id="287" name="detection_output" precision="FP16" type="DetectionOutput">
			<data clip_after_nms="0" clip_before_nms="1" code_type="caffe.PriorBoxParameter.CENTER_SIZE" confidence_threshold="0.300000011921" input_height="1" input_width="1" keep_top_k="100" nms_threshold="0.600000023842" normalized="1" num_classes="91" pad_mode="caffe.ResizeParameter.CONSTANT" resize_mode="caffe.ResizeParameter.WARP" share_location="0" top_k="100" variance_encoded_in_target="1"/>
			<input>
				<port id="0">
					<dim>1</dim>
					<dim>36400</dim>
				</port>
				<port id="1">
					<dim>1</dim>
					<dim>9100</dim>
				</port>
				<port id="2">
					<dim>1</dim>
					<dim>1</dim>
					<dim>400</dim>
				</port>
			</input>
			<output>
				<port id="3">
					<dim>1</dim>
					<dim>1</dim>
					<dim>100</dim>
					<dim>7</dim>
				</port>
			</output>
		</layer>
	</layers>
	<edges>
		<edge from-layer="0" from-port="0" to-layer="1" to-port="0"/>
		<edge from-layer="1" from-port="1" to-layer="2" to-port="0"/>
		<edge from-layer="2" from-port="2" to-layer="3" to-port="0"/>
		<edge from-layer="3" from-port="2" to-layer="4" to-port="0"/>
		<edge from-layer="4" from-port="3" to-layer="5" to-port="0"/>
		<edge from-layer="5" from-port="1" to-layer="6" to-port="0"/>
		<edge from-layer="6" from-port="1" to-layer="7" to-port="0"/>
		<edge from-layer="7" from-port="2" to-layer="8" to-port="0"/>
		<edge from-layer="8" from-port="3" to-layer="9" to-port="0"/>
		<edge from-layer="9" from-port="1" to-layer="10" to-port="0"/>
		<edge from-layer="10" from-port="2" to-layer="11" to-port="0"/>
		<edge from-layer="11" from-port="3" to-layer="12" to-port="0"/>
		<edge from-layer="12" from-port="1" to-layer="13" to-port="0"/>
		<edge from-layer="13" from-port="1" to-layer="14" to-port="0"/>
		<edge from-layer="14" from-port="2" to-layer="15" to-port="0"/>
		<edge from-layer="15" from-port="3" to-layer="16" to-port="0"/>
		<edge from-layer="13" from-port="1" to-layer="17" to-port="0"/>
		<edge from-layer="17" from-port="2" to-layer="18" to-port="0"/>
		<edge from-layer="18" from-port="3" to-layer="19" to-port="0"/>
		<edge from-layer="19" from-port="1" to-layer="20" to-port="0"/>
		<edge from-layer="20" from-port="2" to-layer="21" to-port="0"/>
		<edge from-layer="21" from-port="3" to-layer="22" to-port="0"/>
		<edge from-layer="13" from-port="1" to-layer="23" to-port="0"/>
		<edge from-layer="23" from-port="2" to-layer="24" to-port="0"/>
		<edge from-layer="24" from-port="3" to-layer="25" to-port="0"/>
		<edge from-layer="25" from-port="1" to-layer="26" to-port="0"/>
		<edge from-layer="26" from-port="2" to-layer="27" to-port="0"/>
		<edge from-layer="27" from-port="3" to-layer="28" to-port="0"/>
		<edge from-layer="28" from-port="1" to-layer="29" to-port="0"/>
		<edge from-layer="29" from-port="2" to-layer="30" to-port="0"/>
		<edge from-layer="30" from-port="3" to-layer="31" to-port="0"/>
		<edge from-layer="13" from-port="1" to-layer="32" to-port="0"/>
		<edge from-layer="32" from-port="1" to-layer="33" to-port="0"/>
		<edge from-layer="33" from-port="2" to-layer="34" to-port="0"/>
		<edge from-layer="34" from-port="3" to-layer="35" to-port="0"/>
		<edge from-layer="16" from-port="1" to-layer="36" to-port="0"/>
		<edge from-layer="22" from-port="1" to-layer="36" to-port="1"/>
		<edge from-layer="31" from-port="1" to-layer="36" to-port="2"/>
		<edge from-layer="35" from-port="1" to-layer="36" to-port="3"/>
		<edge from-layer="36" from-port="4" to-layer="37" to-port="0"/>
		<edge from-layer="37" from-port="2" to-layer="38" to-port="0"/>
		<edge from-layer="38" from-port="3" to-layer="39" to-port="0"/>
		<edge from-layer="36" from-port="4" to-layer="40" to-port="0"/>
		<edge from-layer="40" from-port="2" to-layer="41" to-port="0"/>
		<edge from-layer="41" from-port="3" to-layer="42" to-port="0"/>
		<edge from-layer="42" from-port="1" to-layer="43" to-port="0"/>
		<edge from-layer="43" from-port="2" to-layer="44" to-port="0"/>
		<edge from-layer="44" from-port="3" to-layer="45" to-port="0"/>
		<edge from-layer="36" from-port="4" to-layer="46" to-port="0"/>
		<edge from-layer="46" from-port="2" to-layer="47" to-port="0"/>
		<edge from-layer="47" from-port="3" to-layer="48" to-port="0"/>
		<edge from-layer="48" from-port="1" to-layer="49" to-port="0"/>
		<edge from-layer="49" from-port="2" to-layer="50" to-port="0"/>
		<edge from-layer="50" from-port="3" to-layer="51" to-port="0"/>
		<edge from-layer="51" from-port="1" to-layer="52" to-port="0"/>
		<edge from-layer="52" from-port="2" to-layer="53" to-port="0"/>
		<edge from-layer="53" from-port="3" to-layer="54" to-port="0"/>
		<edge from-layer="36" from-port="4" to-layer="55" to-port="0"/>
		<edge from-layer="55" from-port="1" to-layer="56" to-port="0"/>
		<edge from-layer="56" from-port="2" to-layer="57" to-port="0"/>
		<edge from-layer="57" from-port="3" to-layer="58" to-port="0"/>
		<edge from-layer="39" from-port="1" to-layer="59" to-port="0"/>
		<edge from-layer="45" from-port="1" to-layer="59" to-port="1"/>
		<edge from-layer="54" from-port="1" to-layer="59" to-port="2"/>
		<edge from-layer="58" from-port="1" to-layer="59" to-port="3"/>
		<edge from-layer="59" from-port="4" to-layer="60" to-port="0"/>
		<edge from-layer="60" from-port="2" to-layer="61" to-port="0"/>
		<edge from-layer="61" from-port="3" to-layer="62" to-port="0"/>
		<edge from-layer="62" from-port="1" to-layer="63" to-port="0"/>
		<edge from-layer="63" from-port="2" to-layer="64" to-port="0"/>
		<edge from-layer="64" from-port="3" to-layer="65" to-port="0"/>
		<edge from-layer="59" from-port="4" to-layer="66" to-port="0"/>
		<edge from-layer="66" from-port="2" to-layer="67" to-port="0"/>
		<edge from-layer="67" from-port="3" to-layer="68" to-port="0"/>
		<edge from-layer="68" from-port="1" to-layer="69" to-port="0"/>
		<edge from-layer="69" from-port="2" to-layer="70" to-port="0"/>
		<edge from-layer="70" from-port="3" to-layer="71" to-port="0"/>
		<edge from-layer="71" from-port="1" to-layer="72" to-port="0"/>
		<edge from-layer="72" from-port="2" to-layer="73" to-port="0"/>
		<edge from-layer="73" from-port="3" to-layer="74" to-port="0"/>
		<edge from-layer="59" from-port="4" to-layer="75" to-port="0"/>
		<edge from-layer="65" from-port="1" to-layer="76" to-port="0"/>
		<edge from-layer="74" from-port="1" to-layer="76" to-port="1"/>
		<edge from-layer="75" from-port="1" to-layer="76" to-port="2"/>
		<edge from-layer="76" from-port="3" to-layer="77" to-port="0"/>
		<edge from-layer="77" from-port="2" to-layer="78" to-port="0"/>
		<edge from-layer="78" from-port="3" to-layer="79" to-port="0"/>
		<edge from-layer="76" from-port="3" to-layer="80" to-port="0"/>
		<edge from-layer="80" from-port="2" to-layer="81" to-port="0"/>
		<edge from-layer="81" from-port="3" to-layer="82" to-port="0"/>
		<edge from-layer="82" from-port="1" to-layer="83" to-port="0"/>
		<edge from-layer="83" from-port="2" to-layer="84" to-port="0"/>
		<edge from-layer="84" from-port="3" to-layer="85" to-port="0"/>
		<edge from-layer="76" from-port="3" to-layer="86" to-port="0"/>
		<edge from-layer="86" from-port="2" to-layer="87" to-port="0"/>
		<edge from-layer="87" from-port="3" to-layer="88" to-port="0"/>
		<edge from-layer="88" from-port="1" to-layer="89" to-port="0"/>
		<edge from-layer="89" from-port="2" to-layer="90" to-port="0"/>
		<edge from-layer="90" from-port="3" to-layer="91" to-port="0"/>
		<edge from-layer="91" from-port="1" to-layer="92" to-port="0"/>
		<edge from-layer="92" from-port="2" to-layer="93" to-port="0"/>
		<edge from-layer="93" from-port="3" to-layer="94" to-port="0"/>
		<edge from-layer="76" from-port="3" to-layer="95" to-port="0"/>
		<edge from-layer="95" from-port="1" to-layer="96" to-port="0"/>
		<edge from-layer="96" from-port="2" to-layer="97" to-port="0"/>
		<edge from-layer="97" from-port="3" to-layer="98" to-port="0"/>
		<edge from-layer="79" from-port="1" to-layer="99" to-port="0"/>
		<edge from-layer="85" from-port="1" to-layer="99" to-port="1"/>
		<edge from-layer="94" from-port="1" to-layer="99" to-port="2"/>
		<edge from-layer="98" from-port="1" to-layer="99" to-port="3"/>
		<edge from-layer="99" from-port="4" to-layer="100" to-port="0"/>
		<edge from-layer="100" from-port="2" to-layer="101" to-port="0"/>
		<edge from-layer="101" from-port="3" to-layer="102" to-port="0"/>
		<edge from-layer="99" from-port="4" to-layer="103" to-port="0"/>
		<edge from-layer="103" from-port="2" to-layer="104" to-port="0"/>
		<edge from-layer="104" from-port="3" to-layer="105" to-port="0"/>
		<edge from-layer="105" from-port="1" to-layer="106" to-port="0"/>
		<edge from-layer="106" from-port="2" to-layer="107" to-port="0"/>
		<edge from-layer="107" from-port="3" to-layer="108" to-port="0"/>
		<edge from-layer="99" from-port="4" to-layer="109" to-port="0"/>
		<edge from-layer="109" from-port="2" to-layer="110" to-port="0"/>
		<edge from-layer="110" from-port="3" to-layer="111" to-port="0"/>
		<edge from-layer="111" from-port="1" to-layer="112" to-port="0"/>
		<edge from-layer="112" from-port="2" to-layer="113" to-port="0"/>
		<edge from-layer="113" from-port="3" to-layer="114" to-port="0"/>
		<edge from-layer="114" from-port="1" to-layer="115" to-port="0"/>
		<edge from-layer="115" from-port="2" to-layer="116" to-port="0"/>
		<edge from-layer="116" from-port="3" to-layer="117" to-port="0"/>
		<edge from-layer="99" from-port="4" to-layer="118" to-port="0"/>
		<edge from-layer="118" from-port="1" to-layer="119" to-port="0"/>
		<edge from-layer="119" from-port="2" to-layer="120" to-port="0"/>
		<edge from-layer="120" from-port="3" to-layer="121" to-port="0"/>
		<edge from-layer="102" from-port="1" to-layer="122" to-port="0"/>
		<edge from-layer="108" from-port="1" to-layer="122" to-port="1"/>
		<edge from-layer="117" from-port="1" to-layer="122" to-port="2"/>
		<edge from-layer="121" from-port="1" to-layer="122" to-port="3"/>
		<edge from-layer="122" from-port="4" to-layer="123" to-port="0"/>
		<edge from-layer="123" from-port="2" to-layer="124" to-port="0"/>
		<edge from-layer="124" from-port="3" to-layer="125" to-port="0"/>
		<edge from-layer="122" from-port="4" to-layer="126" to-port="0"/>
		<edge from-layer="126" from-port="2" to-layer="127" to-port="0"/>
		<edge from-layer="127" from-port="3" to-layer="128" to-port="0"/>
		<edge from-layer="128" from-port="1" to-layer="129" to-port="0"/>
		<edge from-layer="129" from-port="2" to-layer="130" to-port="0"/>
		<edge from-layer="130" from-port="3" to-layer="131" to-port="0"/>
		<edge from-layer="122" from-port="4" to-layer="132" to-port="0"/>
		<edge from-layer="132" from-port="2" to-layer="133" to-port="0"/>
		<edge from-layer="133" from-port="3" to-layer="134" to-port="0"/>
		<edge from-layer="134" from-port="1" to-layer="135" to-port="0"/>
		<edge from-layer="135" from-port="2" to-layer="136" to-port="0"/>
		<edge from-layer="136" from-port="3" to-layer="137" to-port="0"/>
		<edge from-layer="137" from-port="1" to-layer="138" to-port="0"/>
		<edge from-layer="138" from-port="2" to-layer="139" to-port="0"/>
		<edge from-layer="139" from-port="3" to-layer="140" to-port="0"/>
		<edge from-layer="122" from-port="4" to-layer="141" to-port="0"/>
		<edge from-layer="141" from-port="1" to-layer="142" to-port="0"/>
		<edge from-layer="142" from-port="2" to-layer="143" to-port="0"/>
		<edge from-layer="143" from-port="3" to-layer="144" to-port="0"/>
		<edge from-layer="125" from-port="1" to-layer="145" to-port="0"/>
		<edge from-layer="131" from-port="1" to-layer="145" to-port="1"/>
		<edge from-layer="140" from-port="1" to-layer="145" to-port="2"/>
		<edge from-layer="144" from-port="1" to-layer="145" to-port="3"/>
		<edge from-layer="145" from-port="4" to-layer="146" to-port="0"/>
		<edge from-layer="146" from-port="2" to-layer="147" to-port="0"/>
		<edge from-layer="147" from-port="3" to-layer="148" to-port="0"/>
		<edge from-layer="145" from-port="4" to-layer="149" to-port="0"/>
		<edge from-layer="149" from-port="2" to-layer="150" to-port="0"/>
		<edge from-layer="150" from-port="3" to-layer="151" to-port="0"/>
		<edge from-layer="151" from-port="1" to-layer="152" to-port="0"/>
		<edge from-layer="152" from-port="2" to-layer="153" to-port="0"/>
		<edge from-layer="153" from-port="3" to-layer="154" to-port="0"/>
		<edge from-layer="145" from-port="4" to-layer="155" to-port="0"/>
		<edge from-layer="155" from-port="2" to-layer="156" to-port="0"/>
		<edge from-layer="156" from-port="3" to-layer="157" to-port="0"/>
		<edge from-layer="157" from-port="1" to-layer="158" to-port="0"/>
		<edge from-layer="158" from-port="2" to-layer="159" to-port="0"/>
		<edge from-layer="159" from-port="3" to-layer="160" to-port="0"/>
		<edge from-layer="160" from-port="1" to-layer="161" to-port="0"/>
		<edge from-layer="161" from-port="2" to-layer="162" to-port="0"/>
		<edge from-layer="162" from-port="3" to-layer="163" to-port="0"/>
		<edge from-layer="145" from-port="4" to-layer="164" to-port="0"/>
		<edge from-layer="164" from-port="1" to-layer="165" to-port="0"/>
		<edge from-layer="165" from-port="2" to-layer="166" to-port="0"/>
		<edge from-layer="166" from-port="3" to-layer="167" to-port="0"/>
		<edge from-layer="148" from-port="1" to-layer="168" to-port="0"/>
		<edge from-layer="154" from-port="1" to-layer="168" to-port="1"/>
		<edge from-layer="163" from-port="1" to-layer="168" to-port="2"/>
		<edge from-layer="167" from-port="1" to-layer="168" to-port="3"/>
		<edge from-layer="168" from-port="4" to-layer="169" to-port="0"/>
		<edge from-layer="169" from-port="2" to-layer="170" to-port="0"/>
		<edge from-layer="170" from-port="3" to-layer="171" to-port="0"/>
		<edge from-layer="171" from-port="1" to-layer="172" to-port="0"/>
		<edge from-layer="172" from-port="2" to-layer="173" to-port="0"/>
		<edge from-layer="173" from-port="3" to-layer="175" to-port="0"/>
		<edge from-layer="174" from-port="1" to-layer="175" to-port="1"/>
		<edge from-layer="175" from-port="2" to-layer="176" to-port="0"/>
		<edge from-layer="176" from-port="1" to-layer="177" to-port="0"/>
		<edge from-layer="177" from-port="1" to-layer="179" to-port="0"/>
		<edge from-layer="178" from-port="1" to-layer="179" to-port="1"/>
		<edge from-layer="171" from-port="1" to-layer="180" to-port="0"/>
		<edge from-layer="180" from-port="2" to-layer="181" to-port="0"/>
		<edge from-layer="179" from-port="2" to-layer="183" to-port="0"/>
		<edge from-layer="181" from-port="3" to-layer="183" to-port="1"/>
		<edge from-layer="182" from-port="0" to-layer="183" to-port="2"/>
		<edge from-layer="183" from-port="3" to-layer="185" to-port="0"/>
		<edge from-layer="184" from-port="1" to-layer="185" to-port="1"/>
		<edge from-layer="185" from-port="2" to-layer="186" to-port="0"/>
		<edge from-layer="186" from-port="2" to-layer="188" to-port="0"/>
		<edge from-layer="187" from-port="1" to-layer="188" to-port="1"/>
		<edge from-layer="168" from-port="4" to-layer="189" to-port="0"/>
		<edge from-layer="188" from-port="2" to-layer="189" to-port="1"/>
		<edge from-layer="189" from-port="2" to-layer="190" to-port="0"/>
		<edge from-layer="190" from-port="1" to-layer="191" to-port="0"/>
		<edge from-layer="191" from-port="2" to-layer="192" to-port="0"/>
		<edge from-layer="192" from-port="3" to-layer="193" to-port="0"/>
		<edge from-layer="193" from-port="1" to-layer="194" to-port="0"/>
		<edge from-layer="194" from-port="2" to-layer="195" to-port="0"/>
		<edge from-layer="195" from-port="3" to-layer="196" to-port="0"/>
		<edge from-layer="190" from-port="1" to-layer="197" to-port="0"/>
		<edge from-layer="197" from-port="2" to-layer="198" to-port="0"/>
		<edge from-layer="198" from-port="3" to-layer="199" to-port="0"/>
		<edge from-layer="199" from-port="1" to-layer="200" to-port="0"/>
		<edge from-layer="200" from-port="2" to-layer="201" to-port="0"/>
		<edge from-layer="201" from-port="3" to-layer="202" to-port="0"/>
		<edge from-layer="202" from-port="1" to-layer="203" to-port="0"/>
		<edge from-layer="203" from-port="2" to-layer="204" to-port="0"/>
		<edge from-layer="204" from-port="3" to-layer="205" to-port="0"/>
		<edge from-layer="190" from-port="1" to-layer="206" to-port="0"/>
		<edge from-layer="196" from-port="1" to-layer="207" to-port="0"/>
		<edge from-layer="205" from-port="1" to-layer="207" to-port="1"/>
		<edge from-layer="206" from-port="1" to-layer="207" to-port="2"/>
		<edge from-layer="207" from-port="3" to-layer="208" to-port="0"/>
		<edge from-layer="208" from-port="2" to-layer="209" to-port="0"/>
		<edge from-layer="209" from-port="3" to-layer="210" to-port="0"/>
		<edge from-layer="207" from-port="3" to-layer="211" to-port="0"/>
		<edge from-layer="211" from-port="2" to-layer="212" to-port="0"/>
		<edge from-layer="212" from-port="3" to-layer="213" to-port="0"/>
		<edge from-layer="213" from-port="1" to-layer="214" to-port="0"/>
		<edge from-layer="214" from-port="2" to-layer="215" to-port="0"/>
		<edge from-layer="215" from-port="3" to-layer="216" to-port="0"/>
		<edge from-layer="207" from-port="3" to-layer="217" to-port="0"/>
		<edge from-layer="217" from-port="2" to-layer="218" to-port="0"/>
		<edge from-layer="218" from-port="3" to-layer="219" to-port="0"/>
		<edge from-layer="219" from-port="1" to-layer="220" to-port="0"/>
		<edge from-layer="220" from-port="2" to-layer="221" to-port="0"/>
		<edge from-layer="221" from-port="3" to-layer="222" to-port="0"/>
		<edge from-layer="222" from-port="1" to-layer="223" to-port="0"/>
		<edge from-layer="223" from-port="2" to-layer="224" to-port="0"/>
		<edge from-layer="224" from-port="3" to-layer="225" to-port="0"/>
		<edge from-layer="207" from-port="3" to-layer="226" to-port="0"/>
		<edge from-layer="226" from-port="1" to-layer="227" to-port="0"/>
		<edge from-layer="227" from-port="2" to-layer="228" to-port="0"/>
		<edge from-layer="228" from-port="3" to-layer="229" to-port="0"/>
		<edge from-layer="210" from-port="1" to-layer="230" to-port="0"/>
		<edge from-layer="216" from-port="1" to-layer="230" to-port="1"/>
		<edge from-layer="225" from-port="1" to-layer="230" to-port="2"/>
		<edge from-layer="229" from-port="1" to-layer="230" to-port="3"/>
		<edge from-layer="230" from-port="4" to-layer="231" to-port="0"/>
		<edge from-layer="231" from-port="2" to-layer="232" to-port="0"/>
		<edge from-layer="232" from-port="3" to-layer="233" to-port="0"/>
		<edge from-layer="230" from-port="4" to-layer="234" to-port="0"/>
		<edge from-layer="234" from-port="2" to-layer="235" to-port="0"/>
		<edge from-layer="235" from-port="3" to-layer="236" to-port="0"/>
		<edge from-layer="236" from-port="1" to-layer="237" to-port="0"/>
		<edge from-layer="237" from-port="2" to-layer="238" to-port="0"/>
		<edge from-layer="238" from-port="3" to-layer="239" to-port="0"/>
		<edge from-layer="230" from-port="4" to-layer="240" to-port="0"/>
		<edge from-layer="240" from-port="2" to-layer="241" to-port="0"/>
		<edge from-layer="241" from-port="3" to-layer="242" to-port="0"/>
		<edge from-layer="242" from-port="1" to-layer="243" to-port="0"/>
		<edge from-layer="243" from-port="2" to-layer="244" to-port="0"/>
		<edge from-layer="244" from-port="3" to-layer="245" to-port="0"/>
		<edge from-layer="245" from-port="1" to-layer="246" to-port="0"/>
		<edge from-layer="246" from-port="2" to-layer="247" to-port="0"/>
		<edge from-layer="247" from-port="3" to-layer="248" to-port="0"/>
		<edge from-layer="230" from-port="4" to-layer="249" to-port="0"/>
		<edge from-layer="249" from-port="1" to-layer="250" to-port="0"/>
		<edge from-layer="250" from-port="2" to-layer="251" to-port="0"/>
		<edge from-layer="251" from-port="3" to-layer="252" to-port="0"/>
		<edge from-layer="233" from-port="1" to-layer="253" to-port="0"/>
		<edge from-layer="239" from-port="1" to-layer="253" to-port="1"/>
		<edge from-layer="248" from-port="1" to-layer="253" to-port="2"/>
		<edge from-layer="252" from-port="1" to-layer="253" to-port="3"/>
		<edge from-layer="253" from-port="4" to-layer="255" to-port="0"/>
		<edge from-layer="254" from-port="1" to-layer="255" to-port="1"/>
		<edge from-layer="255" from-port="2" to-layer="256" to-port="0"/>
		<edge from-layer="256" from-port="1" to-layer="258" to-port="0"/>
		<edge from-layer="257" from-port="1" to-layer="258" to-port="1"/>
		<edge from-layer="258" from-port="2" to-layer="259" to-port="0"/>
		<edge from-layer="259" from-port="1" to-layer="261" to-port="0"/>
		<edge from-layer="260" from-port="1" to-layer="261" to-port="1"/>
		<edge from-layer="261" from-port="2" to-layer="262" to-port="0"/>
		<edge from-layer="262" from-port="2" to-layer="263" to-port="0"/>
		<edge from-layer="263" from-port="3" to-layer="265" to-port="0"/>
		<edge from-layer="264" from-port="1" to-layer="265" to-port="1"/>
		<edge from-layer="265" from-port="2" to-layer="266" to-port="0"/>
		<edge from-layer="266" from-port="1" to-layer="267" to-port="0"/>
		<edge from-layer="265" from-port="2" to-layer="267" to-port="1"/>
		<edge from-layer="267" from-port="2" to-layer="269" to-port="0"/>
		<edge from-layer="268" from-port="1" to-layer="269" to-port="1"/>
		<edge from-layer="269" from-port="2" to-layer="270" to-port="0"/>
		<edge from-layer="270" from-port="3" to-layer="272" to-port="0"/>
		<edge from-layer="271" from-port="1" to-layer="272" to-port="1"/>
		<edge from-layer="261" from-port="2" to-layer="273" to-port="0"/>
		<edge from-layer="273" from-port="2" to-layer="274" to-port="0"/>
		<edge from-layer="274" from-port="3" to-layer="276" to-port="0"/>
		<edge from-layer="275" from-port="1" to-layer="276" to-port="1"/>
		<edge from-layer="276" from-port="2" to-layer="278" to-port="0"/>
		<edge from-layer="277" from-port="1" to-layer="278" to-port="1"/>
		<edge from-layer="278" from-port="2" to-layer="279" to-port="0"/>
		<edge from-layer="279" from-port="1" to-layer="281" to-port="0"/>
		<edge from-layer="280" from-port="1" to-layer="281" to-port="1"/>
		<edge from-layer="186" from-port="2" to-layer="283" to-port="0"/>
		<edge from-layer="282" from-port="1" to-layer="283" to-port="1"/>
		<edge from-layer="283" from-port="2" to-layer="284" to-port="0"/>
		<edge from-layer="284" from-port="1" to-layer="286" to-port="0"/>
		<edge from-layer="285" from-port="1" to-layer="286" to-port="1"/>
		<edge from-layer="272" from-port="2" to-layer="287" to-port="0"/>
		<edge from-layer="281" from-port="2" to-layer="287" to-port="1"/>
		<edge from-layer="286" from-port="2" to-layer="287" to-port="2"/>
	</edges>
	<meta_data>
		<MO_version value="2019.3.0-408-gac8584cb7"/>
		<cli_parameters>
			<blobs_as_inputs value="False"/>
			<data_type value="FP16"/>
			<disable_fusing value="True"/>
			<disable_nhwc_to_nchw value="False"/>
			<disable_resnet_optimization value="False"/>
			<enable_concat_optimization value="False"/>
			<extensions value="DIR"/>
			<framework value="tf"/>
			<freeze_placeholder_with_value value="{}"/>
			<generate_experimental_IR_V10 value="False"/>
			<input value="image_tensor"/>
			<input_model value="DIR/frozen_inference_graph.pb"/>
			<input_model_is_text value="False"/>
			<input_shape value="[1,600,1024,3]"/>
			<keep_quantize_ops_in_IR value="False"/>
			<keep_shape_ops value="False"/>
			<log_level value="ERROR"/>
			<mean_scale_values value="{}"/>
			<mean_values value="()"/>
			<move_to_preprocess value="False"/>
			<output value="['detection_scores', 'detection_boxes', 'num_detections']"/>
			<output_dir value="DIR"/>
			<placeholder_shapes value="{'image_tensor': array([   1,  600, 1024,    3])}"/>
			<reverse_input_channels value="True"/>
			<scale_values value="()"/>
			<silent value="False"/>
			<steps value="False"/>
			<tensorflow_object_detection_api_pipeline_config value="DIR/pipeline.config"/>
			<tensorflow_use_custom_operations_config value="DIR/faster_rcnn_support.json"/>
			<version value="False"/>
			<unset unset_cli_parameters="batch, disable_gfusing, finegrain_fusing, generate_deprecated_IR_V2, input_checkpoint, input_meta_graph, model_name, saved_model_dir, saved_model_tags, scale, tensorboard_logdir, tensorflow_custom_layer_libraries, tensorflow_custom_operations_config_update, tensorflow_operation_patterns, tensorflow_subgraph_patterns"/>
		</cli_parameters>
	</meta_data>
</net>
